layer {
  name: "abcd"
  type: "InnerProduct"
  param { lr_mult: 1 decay_mult: 1}
  param { lr_mult: 2 decay_mult: 0}
  inner_product_param {
    num_output: 4
    weight_filler {
      type: "xavier"
    }
    bias_filler {
      type: "constant"
      value: 0
    }
  }
  bottom: "cake"
  top: "abcd"
}
layer {
  name: "abcd"
  type: "InnerProduct"
  param { lr_mult: 1 decay_mult: 1}
  param { lr_mult: 2 decay_mult: 0}
  inner_product_param {
    num_output: 4
    weight_filler {
      type: "xavier"
    }
    bias_filler {
      type: "constant"
      value: 0
    }
  }
  bottom: "cake"
  top: "abcd"
}
layer {
  name: "abcd"
  type: "InnerProduct"
  param { lr_mult: 1 decay_mult: 1}
  param { lr_mult: 2 decay_mult: 0}
  inner_product_param {
    num_output: 4
    weight_filler {
      type: "xavier"
    }
    bias_filler {
      type: "constant"
      value: 0
    }
  }
  bottom: "cake"
  top: "abcd"
}
layer {
  name: "ijkl"
  type: "InnerProduct"
  param { lr_mult: 1 decay_mult: 1}
  param { lr_mult: 2 decay_mult: 0}
  inner_product_param {
    num_output: 2
    weight_filler {
      type: "xavier"
    }
    bias_filler {
      type: "constant"
      value: 0
    }
  }
  bottom: "cake"
  top: "ijkl"
}
layer {
  name: "ijkl"
  type: "InnerProduct"
  param { lr_mult: 1 decay_mult: 1}
  param { lr_mult: 2 decay_mult: 0}
  inner_product_param {
    num_output: 2
    weight_filler {
      type: "xavier"
    }
    bias_filler {
      type: "constant"
      value: 0
    }
  }
  bottom: "cake"
  top: "ijkl"
}
layer {
  name: "qrst"
  type: "InnerProduct"
  param { lr_mult: 1 decay_mult: 1}
  param { lr_mult: 2 decay_mult: 0}
  inner_product_param {
    num_output: 3
    weight_filler {
      type: "xavier"
    }
    bias_filler {
      type: "constant"
      value: 0
    }
  }
  bottom: "cake"
  top: "qrst"
}
input: "uvwx"
input_shape: {
  dim: 1
  dim: 1
  dim: 1
  dim: 3
}
input: "uvwx"
input_shape: {
  dim: 1
  dim: 1
  dim: 1
  dim: 3
}
layer {
  name: "abcd"
  type: "InnerProduct"
  param { lr_mult: 1 decay_mult: 1}
  param { lr_mult: 2 decay_mult: 0}
  inner_product_param {
    num_output: 4
    weight_filler {
      type: "xavier"
    }
    bias_filler {
      type: "constant"
      value: 0
    }
  }
  bottom: "cake"
  top: "abcd"
}
layer {
  name: "abcd"
  type: "InnerProduct"
  param { lr_mult: 1 decay_mult: 1}
  param { lr_mult: 2 decay_mult: 0}
  inner_product_param {
    num_output: 4
    weight_filler {
      type: "xavier"
    }
    bias_filler {
      type: "constant"
      value: 0
    }
  }
  bottom: "cake"
  top: "abcd"
}
layer {
  name: "abcd"
  type: "InnerProduct"
  param { lr_mult: 1 decay_mult: 1}
  param { lr_mult: 2 decay_mult: 0}
  inner_product_param {
    num_output: 4
    weight_filler {
      type: "xavier"
    }
    bias_filler {
      type: "constant"
      value: 0
    }
  }
  bottom: "cake"
  top: "abcd"
}
layer {
  name: "ijkl"
  type: "InnerProduct"
  param { lr_mult: 1 decay_mult: 1}
  param { lr_mult: 2 decay_mult: 0}
  inner_product_param {
    num_output: 2
    weight_filler {
      type: "xavier"
    }
    bias_filler {
      type: "constant"
      value: 0
    }
  }
  bottom: "cake"
  top: "ijkl"
}
layer {
  name: "ijkl"
  type: "InnerProduct"
  param { lr_mult: 1 decay_mult: 1}
  param { lr_mult: 2 decay_mult: 0}
  inner_product_param {
    num_output: 2
    weight_filler {
      type: "xavier"
    }
    bias_filler {
      type: "constant"
      value: 0
    }
  }
  bottom: "cake"
  top: "ijkl"
}
layer {
  name: "qrst"
  type: "InnerProduct"
  param { lr_mult: 1 decay_mult: 1}
  param { lr_mult: 2 decay_mult: 0}
  inner_product_param {
    num_output: 3
    weight_filler {
      type: "xavier"
    }
    bias_filler {
      type: "constant"
      value: 0
    }
  }
  bottom: "cake"
  top: "qrst"
}
input: "uvwx"
input_shape: {
  dim: 1
  dim: 1
  dim: 1
  dim: 3
}
input: "uvwx"
input_shape: {
  dim: 1
  dim: 1
  dim: 1
  dim: 3
}
layer {
  name: "abcd"
  type: "InnerProduct"
  param { lr_mult: 1 decay_mult: 1}
  param { lr_mult: 2 decay_mult: 0}
  inner_product_param {
    num_output: 4
    weight_filler {
      type: "xavier"
    }
    bias_filler {
      type: "constant"
      value: 0
    }
  }
  bottom: "cake"
  top: "abcd"
}
layer {
  name: "abcd"
  type: "InnerProduct"
  param { lr_mult: 1 decay_mult: 1}
  param { lr_mult: 2 decay_mult: 0}
  inner_product_param {
    num_output: 4
    weight_filler {
      type: "xavier"
    }
    bias_filler {
      type: "constant"
      value: 0
    }
  }
  bottom: "cake"
  top: "abcd"
}
layer {
  name: "abcd"
  type: "InnerProduct"
  param { lr_mult: 1 decay_mult: 1}
  param { lr_mult: 2 decay_mult: 0}
  inner_product_param {
    num_output: 4
    weight_filler {
      type: "xavier"
    }
    bias_filler {
      type: "constant"
      value: 0
    }
  }
  bottom: "cake"
  top: "abcd"
}
layer {
  name: "ijkl"
  type: "InnerProduct"
  param { lr_mult: 1 decay_mult: 1}
  param { lr_mult: 2 decay_mult: 0}
  inner_product_param {
    num_output: 2
    weight_filler {
      type: "xavier"
    }
    bias_filler {
      type: "constant"
      value: 0
    }
  }
  bottom: "cake"
  top: "ijkl"
}
layer {
  name: "ijkl"
  type: "InnerProduct"
  param { lr_mult: 1 decay_mult: 1}
  param { lr_mult: 2 decay_mult: 0}
  inner_product_param {
    num_output: 2
    weight_filler {
      type: "xavier"
    }
    bias_filler {
      type: "constant"
      value: 0
    }
  }
  bottom: "cake"
  top: "ijkl"
}
layer {
  name: "qrst"
  type: "InnerProduct"
  param { lr_mult: 1 decay_mult: 1}
  param { lr_mult: 2 decay_mult: 0}
  inner_product_param {
    num_output: 3
    weight_filler {
      type: "xavier"
    }
    bias_filler {
      type: "constant"
      value: 0
    }
  }
  bottom: "cake"
  top: "qrst"
}
input: "uvwx"
input_shape: {
  dim: 1
  dim: 1
  dim: 1
  dim: 3
}
input: "uvwx"
input_shape: {
  dim: 1
  dim: 1
  dim: 1
  dim: 3
}
layer {
  name: "abcd"
  type: "InnerProduct"
  param { lr_mult: 1 decay_mult: 1}
  param { lr_mult: 2 decay_mult: 0}
  inner_product_param {
    num_output: 4
    weight_filler {
      type: "xavier"
    }
    bias_filler {
      type: "constant"
      value: 0
    }
  }
  bottom: "cake"
  top: "abcd"
}
layer {
  name: "abcd"
  type: "InnerProduct"
  param { lr_mult: 1 decay_mult: 1}
  param { lr_mult: 2 decay_mult: 0}
  inner_product_param {
    num_output: 4
    weight_filler {
      type: "xavier"
    }
    bias_filler {
      type: "constant"
      value: 0
    }
  }
  bottom: "cake"
  top: "abcd"
}
layer {
  name: "abcd"
  type: "InnerProduct"
  param { lr_mult: 1 decay_mult: 1}
  param { lr_mult: 2 decay_mult: 0}
  inner_product_param {
    num_output: 4
    weight_filler {
      type: "xavier"
    }
    bias_filler {
      type: "constant"
      value: 0
    }
  }
  bottom: "cake"
  top: "abcd"
}
layer {
  name: "ijkl"
  type: "InnerProduct"
  param { lr_mult: 1 decay_mult: 1}
  param { lr_mult: 2 decay_mult: 0}
  inner_product_param {
    num_output: 2
    weight_filler {
      type: "xavier"
    }
    bias_filler {
      type: "constant"
      value: 0
    }
  }
  bottom: "cake"
  top: "ijkl"
}
layer {
  name: "ijkl"
  type: "InnerProduct"
  param { lr_mult: 1 decay_mult: 1}
  param { lr_mult: 2 decay_mult: 0}
  inner_product_param {
    num_output: 2
    weight_filler {
      type: "xavier"
    }
    bias_filler {
      type: "constant"
      value: 0
    }
  }
  bottom: "cake"
  top: "ijkl"
}
layer {
  name: "qrst"
  type: "InnerProduct"
  param { lr_mult: 1 decay_mult: 1}
  param { lr_mult: 2 decay_mult: 0}
  inner_product_param {
    num_output: 3
    weight_filler {
      type: "xavier"
    }
    bias_filler {
      type: "constant"
      value: 0
    }
  }
  bottom: "cake"
  top: "qrst"
}
input: "uvwx"
input_shape: {
  dim: 1
  dim: 1
  dim: 1
  dim: 3
}
input: "uvwx"
input_shape: {
  dim: 1
  dim: 1
  dim: 1
  dim: 3
}
layer {
  name: "abcd"
  type: "InnerProduct"
  param { lr_mult: 1 decay_mult: 1}
  param { lr_mult: 2 decay_mult: 0}
  inner_product_param {
    num_output: 4
    weight_filler {
      type: "xavier"
    }
    bias_filler {
      type: "constant"
      value: 0
    }
  }
  bottom: "cake"
  top: "abcd"
}
layer {
  name: "abcd"
  type: "InnerProduct"
  param { lr_mult: 1 decay_mult: 1}
  param { lr_mult: 2 decay_mult: 0}
  inner_product_param {
    num_output: 4
    weight_filler {
      type: "xavier"
    }
    bias_filler {
      type: "constant"
      value: 0
    }
  }
  bottom: "cake"
  top: "abcd"
}
layer {
  name: "abcd"
  type: "InnerProduct"
  param { lr_mult: 1 decay_mult: 1}
  param { lr_mult: 2 decay_mult: 0}
  inner_product_param {
    num_output: 4
    weight_filler {
      type: "xavier"
    }
    bias_filler {
      type: "constant"
      value: 0
    }
  }
  bottom: "cake"
  top: "abcd"
}
layer {
  name: "ijkl"
  type: "InnerProduct"
  param { lr_mult: 1 decay_mult: 1}
  param { lr_mult: 2 decay_mult: 0}
  inner_product_param {
    num_output: 2
    weight_filler {
      type: "xavier"
    }
    bias_filler {
      type: "constant"
      value: 0
    }
  }
  bottom: "cake"
  top: "ijkl"
}
layer {
  name: "ijkl"
  type: "InnerProduct"
  param { lr_mult: 1 decay_mult: 1}
  param { lr_mult: 2 decay_mult: 0}
  inner_product_param {
    num_output: 2
    weight_filler {
      type: "xavier"
    }
    bias_filler {
      type: "constant"
      value: 0
    }
  }
  bottom: "cake"
  top: "ijkl"
}
layer {
  name: "qrst"
  type: "InnerProduct"
  param { lr_mult: 1 decay_mult: 1}
  param { lr_mult: 2 decay_mult: 0}
  inner_product_param {
    num_output: 3
    weight_filler {
      type: "xavier"
    }
    bias_filler {
      type: "constant"
      value: 0
    }
  }
  bottom: "cake"
  top: "qrst"
}
input: "uvwx"
input_shape: {
  dim: 1
  dim: 1
  dim: 1
  dim: 3
}
input: "uvwx"
input_shape: {
  dim: 1
  dim: 1
  dim: 1
  dim: 3
}
layer {
  name: "abcd"
  type: "InnerProduct"
  param { lr_mult: 1 decay_mult: 1}
  param { lr_mult: 2 decay_mult: 0}
  inner_product_param {
    num_output: 4
    weight_filler {
      type: "xavier"
    }
    bias_filler {
      type: "constant"
      value: 0
    }
  }
  bottom: "cake"
  top: "abcd"
}
layer {
  name: "abcd"
  type: "InnerProduct"
  param { lr_mult: 1 decay_mult: 1}
  param { lr_mult: 2 decay_mult: 0}
  inner_product_param {
    num_output: 4
    weight_filler {
      type: "xavier"
    }
    bias_filler {
      type: "constant"
      value: 0
    }
  }
  bottom: "cake"
  top: "abcd"
}
layer {
  name: "abcd"
  type: "InnerProduct"
  param { lr_mult: 1 decay_mult: 1}
  param { lr_mult: 2 decay_mult: 0}
  inner_product_param {
    num_output: 4
    weight_filler {
      type: "xavier"
    }
    bias_filler {
      type: "constant"
      value: 0
    }
  }
  bottom: "cake"
  top: "abcd"
}
layer {
  name: "ijkl"
  type: "InnerProduct"
  param { lr_mult: 1 decay_mult: 1}
  param { lr_mult: 2 decay_mult: 0}
  inner_product_param {
    num_output: 2
    weight_filler {
      type: "xavier"
    }
    bias_filler {
      type: "constant"
      value: 0
    }
  }
  bottom: "cake"
  top: "ijkl"
}
layer {
  name: "ijkl"
  type: "InnerProduct"
  param { lr_mult: 1 decay_mult: 1}
  param { lr_mult: 2 decay_mult: 0}
  inner_product_param {
    num_output: 2
    weight_filler {
      type: "xavier"
    }
    bias_filler {
      type: "constant"
      value: 0
    }
  }
  bottom: "cake"
  top: "ijkl"
}
layer {
  name: "qrst"
  type: "InnerProduct"
  param { lr_mult: 1 decay_mult: 1}
  param { lr_mult: 2 decay_mult: 0}
  inner_product_param {
    num_output: 3
    weight_filler {
      type: "xavier"
    }
    bias_filler {
      type: "constant"
      value: 0
    }
  }
  bottom: "cake"
  top: "qrst"
}
input: "uvwx"
input_shape: {
  dim: 1
  dim: 1
  dim: 1
  dim: 3
}
input: "uvwx"
input_shape: {
  dim: 1
  dim: 1
  dim: 1
  dim: 3
}
layer {
  name: "abcd"
  type: "InnerProduct"
  param { lr_mult: 1 decay_mult: 1}
  param { lr_mult: 2 decay_mult: 0}
  inner_product_param {
    num_output: 4
    weight_filler {
      type: "xavier"
    }
    bias_filler {
      type: "constant"
      value: 0
    }
  }
  bottom: "cake"
  top: "abcd"
}
layer {
  name: "abcd"
  type: "InnerProduct"
  param { lr_mult: 1 decay_mult: 1}
  param { lr_mult: 2 decay_mult: 0}
  inner_product_param {
    num_output: 4
    weight_filler {
      type: "xavier"
    }
    bias_filler {
      type: "constant"
      value: 0
    }
  }
  bottom: "cake"
  top: "abcd"
}
layer {
  name: "abcd"
  type: "InnerProduct"
  param { lr_mult: 1 decay_mult: 1}
  param { lr_mult: 2 decay_mult: 0}
  inner_product_param {
    num_output: 4
    weight_filler {
      type: "xavier"
    }
    bias_filler {
      type: "constant"
      value: 0
    }
  }
  bottom: "cake"
  top: "abcd"
}
layer {
  name: "ijkl"
  type: "InnerProduct"
  param { lr_mult: 1 decay_mult: 1}
  param { lr_mult: 2 decay_mult: 0}
  inner_product_param {
    num_output: 2
    weight_filler {
      type: "xavier"
    }
    bias_filler {
      type: "constant"
      value: 0
    }
  }
  bottom: "cake"
  top: "ijkl"
}
layer {
  name: "ijkl"
  type: "InnerProduct"
  param { lr_mult: 1 decay_mult: 1}
  param { lr_mult: 2 decay_mult: 0}
  inner_product_param {
    num_output: 2
    weight_filler {
      type: "xavier"
    }
    bias_filler {
      type: "constant"
      value: 0
    }
  }
  bottom: "cake"
  top: "ijkl"
}
layer {
  name: "qrst"
  type: "InnerProduct"
  param { lr_mult: 1 decay_mult: 1}
  param { lr_mult: 2 decay_mult: 0}
  inner_product_param {
    num_output: 3
    weight_filler {
      type: "xavier"
    }
    bias_filler {
      type: "constant"
      value: 0
    }
  }
  bottom: "cake"
  top: "qrst"
}
input: "uvwx"
input_shape: {
  dim: 1
  dim: 1
  dim: 1
  dim: 3
}
input: "uvwx"
input_shape: {
  dim: 1
  dim: 1
  dim: 1
  dim: 3
}
layer {
  name: "abcd"
  type: "InnerProduct"
  param { lr_mult: 1 decay_mult: 1}
  param { lr_mult: 2 decay_mult: 0}
  inner_product_param {
    num_output: 4
    weight_filler {
      type: "xavier"
    }
    bias_filler {
      type: "constant"
      value: 0
    }
  }
  bottom: "cake"
  top: "abcd"
}
layer {
  name: "abcd"
  type: "InnerProduct"
  param { lr_mult: 1 decay_mult: 1}
  param { lr_mult: 2 decay_mult: 0}
  inner_product_param {
    num_output: 4
    weight_filler {
      type: "xavier"
    }
    bias_filler {
      type: "constant"
      value: 0
    }
  }
  bottom: "cake"
  top: "abcd"
}
layer {
  name: "abcd"
  type: "InnerProduct"
  param { lr_mult: 1 decay_mult: 1}
  param { lr_mult: 2 decay_mult: 0}
  inner_product_param {
    num_output: 4
    weight_filler {
      type: "xavier"
    }
    bias_filler {
      type: "constant"
      value: 0
    }
  }
  bottom: "cake"
  top: "abcd"
}
layer {
  name: "ijkl"
  type: "InnerProduct"
  param { lr_mult: 1 decay_mult: 1}
  param { lr_mult: 2 decay_mult: 0}
  inner_product_param {
    num_output: 2
    weight_filler {
      type: "xavier"
    }
    bias_filler {
      type: "constant"
      value: 0
    }
  }
  bottom: "cake"
  top: "ijkl"
}
layer {
  name: "ijkl"
  type: "InnerProduct"
  param { lr_mult: 1 decay_mult: 1}
  param { lr_mult: 2 decay_mult: 0}
  inner_product_param {
    num_output: 2
    weight_filler {
      type: "xavier"
    }
    bias_filler {
      type: "constant"
      value: 0
    }
  }
  bottom: "cake"
  top: "ijkl"
}
layer {
  name: "qrst"
  type: "InnerProduct"
  param { lr_mult: 1 decay_mult: 1}
  param { lr_mult: 2 decay_mult: 0}
  inner_product_param {
    num_output: 3
    weight_filler {
      type: "xavier"
    }
    bias_filler {
      type: "constant"
      value: 0
    }
  }
  bottom: "cake"
  top: "qrst"
}
input: "uvwx"
input_shape: {
  dim: 1
  dim: 1
  dim: 1
  dim: 3
}
input: "uvwx"
input_shape: {
  dim: 1
  dim: 1
  dim: 1
  dim: 3
}
layer {
  name: "abcd"
  type: "InnerProduct"
  param { lr_mult: 1 decay_mult: 1}
  param { lr_mult: 2 decay_mult: 0}
  inner_product_param {
    num_output: 4
    weight_filler {
      type: "xavier"
    }
    bias_filler {
      type: "constant"
      value: 0
    }
  }
  bottom: "cake"
  top: "abcd"
}
layer {
  name: "abcd"
  type: "InnerProduct"
  param { lr_mult: 1 decay_mult: 1}
  param { lr_mult: 2 decay_mult: 0}
  inner_product_param {
    num_output: 4
    weight_filler {
      type: "xavier"
    }
    bias_filler {
      type: "constant"
      value: 0
    }
  }
  bottom: "cake"
  top: "abcd"
}
layer {
  name: "abcd"
  type: "InnerProduct"
  param { lr_mult: 1 decay_mult: 1}
  param { lr_mult: 2 decay_mult: 0}
  inner_product_param {
    num_output: 4
    weight_filler {
      type: "xavier"
    }
    bias_filler {
      type: "constant"
      value: 0
    }
  }
  bottom: "cake"
  top: "abcd"
}
layer {
  name: "ijkl"
  type: "InnerProduct"
  param { lr_mult: 1 decay_mult: 1}
  param { lr_mult: 2 decay_mult: 0}
  inner_product_param {
    num_output: 2
    weight_filler {
      type: "xavier"
    }
    bias_filler {
      type: "constant"
      value: 0
    }
  }
  bottom: "cake"
  top: "ijkl"
}
layer {
  name: "ijkl"
  type: "InnerProduct"
  param { lr_mult: 1 decay_mult: 1}
  param { lr_mult: 2 decay_mult: 0}
  inner_product_param {
    num_output: 2
    weight_filler {
      type: "xavier"
    }
    bias_filler {
      type: "constant"
      value: 0
    }
  }
  bottom: "cake"
  top: "ijkl"
}
layer {
  name: "qrst"
  type: "InnerProduct"
  param { lr_mult: 1 decay_mult: 1}
  param { lr_mult: 2 decay_mult: 0}
  inner_product_param {
    num_output: 3
    weight_filler {
      type: "xavier"
    }
    bias_filler {
      type: "constant"
      value: 0
    }
  }
  bottom: "cake"
  top: "qrst"
}
input: "uvwx"
input_shape: {
  dim: 1
  dim: 1
  dim: 1
  dim: 3
}
input: "uvwx"
input_shape: {
  dim: 1
  dim: 1
  dim: 1
  dim: 3
}
layer {
  name: "abcd"
  type: "InnerProduct"
  param { lr_mult: 1 decay_mult: 1}
  param { lr_mult: 2 decay_mult: 0}
  inner_product_param {
    num_output: 4
    weight_filler {
      type: "xavier"
    }
    bias_filler {
      type: "constant"
      value: 0
    }
  }
  bottom: "cake"
  top: "abcd"
}
layer {
  name: "abcd"
  type: "InnerProduct"
  param { lr_mult: 1 decay_mult: 1}
  param { lr_mult: 2 decay_mult: 0}
  inner_product_param {
    num_output: 4
    weight_filler {
      type: "xavier"
    }
    bias_filler {
      type: "constant"
      value: 0
    }
  }
  bottom: "cake"
  top: "abcd"
}
layer {
  name: "abcd"
  type: "InnerProduct"
  param { lr_mult: 1 decay_mult: 1}
  param { lr_mult: 2 decay_mult: 0}
  inner_product_param {
    num_output: 4
    weight_filler {
      type: "xavier"
    }
    bias_filler {
      type: "constant"
      value: 0
    }
  }
  bottom: "cake"
  top: "abcd"
}
layer {
  name: "ijkl"
  type: "InnerProduct"
  param { lr_mult: 1 decay_mult: 1}
  param { lr_mult: 2 decay_mult: 0}
  inner_product_param {
    num_output: 2
    weight_filler {
      type: "xavier"
    }
    bias_filler {
      type: "constant"
      value: 0
    }
  }
  bottom: "cake"
  top: "ijkl"
}
layer {
  name: "ijkl"
  type: "InnerProduct"
  param { lr_mult: 1 decay_mult: 1}
  param { lr_mult: 2 decay_mult: 0}
  inner_product_param {
    num_output: 2
    weight_filler {
      type: "xavier"
    }
    bias_filler {
      type: "constant"
      value: 0
    }
  }
  bottom: "cake"
  top: "ijkl"
}
layer {
  name: "qrst"
  type: "InnerProduct"
  param { lr_mult: 1 decay_mult: 1}
  param { lr_mult: 2 decay_mult: 0}
  inner_product_param {
    num_output: 3
    weight_filler {
      type: "xavier"
    }
    bias_filler {
      type: "constant"
      value: 0
    }
  }
  bottom: "cake"
  top: "qrst"
}
input: "uvwx"
input_shape: {
  dim: 1
  dim: 1
  dim: 1
  dim: 3
}
input: "uvwx"
input_shape: {
  dim: 1
  dim: 1
  dim: 1
  dim: 3
}
layer {
  name: "abcd"
  type: "InnerProduct"
  param { lr_mult: 1 decay_mult: 1}
  param { lr_mult: 2 decay_mult: 0}
  inner_product_param {
    num_output: 4
    weight_filler {
      type: "xavier"
    }
    bias_filler {
      type: "constant"
      value: 0
    }
  }
  bottom: "cake"
  top: "abcd"
}
layer {
  name: "abcd"
  type: "InnerProduct"
  param { lr_mult: 1 decay_mult: 1}
  param { lr_mult: 2 decay_mult: 0}
  inner_product_param {
    num_output: 4
    weight_filler {
      type: "xavier"
    }
    bias_filler {
      type: "constant"
      value: 0
    }
  }
  bottom: "cake"
  top: "abcd"
}
layer {
  name: "abcd"
  type: "InnerProduct"
  param { lr_mult: 1 decay_mult: 1}
  param { lr_mult: 2 decay_mult: 0}
  inner_product_param {
    num_output: 4
    weight_filler {
      type: "xavier"
    }
    bias_filler {
      type: "constant"
      value: 0
    }
  }
  bottom: "cake"
  top: "abcd"
}
layer {
  name: "ijkl"
  type: "InnerProduct"
  param { lr_mult: 1 decay_mult: 1}
  param { lr_mult: 2 decay_mult: 0}
  inner_product_param {
    num_output: 2
    weight_filler {
      type: "xavier"
    }
    bias_filler {
      type: "constant"
      value: 0
    }
  }
  bottom: "cake"
  top: "ijkl"
}
layer {
  name: "ijkl"
  type: "InnerProduct"
  param { lr_mult: 1 decay_mult: 1}
  param { lr_mult: 2 decay_mult: 0}
  inner_product_param {
    num_output: 2
    weight_filler {
      type: "xavier"
    }
    bias_filler {
      type: "constant"
      value: 0
    }
  }
  bottom: "cake"
  top: "ijkl"
}
layer {
  name: "qrst"
  type: "InnerProduct"
  param { lr_mult: 1 decay_mult: 1}
  param { lr_mult: 2 decay_mult: 0}
  inner_product_param {
    num_output: 3
    weight_filler {
      type: "xavier"
    }
    bias_filler {
      type: "constant"
      value: 0
    }
  }
  bottom: "cake"
  top: "qrst"
}
input: "uvwx"
input_shape: {
  dim: 1
  dim: 1
  dim: 1
  dim: 3
}
input: "uvwx"
input_shape: {
  dim: 1
  dim: 1
  dim: 1
  dim: 3
}
layer {
  name: "abcd"
  type: "InnerProduct"
  param { lr_mult: 1 decay_mult: 1}
  param { lr_mult: 2 decay_mult: 0}
  inner_product_param {
    num_output: 4
    weight_filler {
      type: "xavier"
    }
    bias_filler {
      type: "constant"
      value: 0
    }
  }
  bottom: "cake"
  top: "abcd"
}
layer {
  name: "abcd"
  type: "InnerProduct"
  param { lr_mult: 1 decay_mult: 1}
  param { lr_mult: 2 decay_mult: 0}
  inner_product_param {
    num_output: 4
    weight_filler {
      type: "xavier"
    }
    bias_filler {
      type: "constant"
      value: 0
    }
  }
  bottom: "cake"
  top: "abcd"
}
layer {
  name: "abcd"
  type: "InnerProduct"
  param { lr_mult: 1 decay_mult: 1}
  param { lr_mult: 2 decay_mult: 0}
  inner_product_param {
    num_output: 4
    weight_filler {
      type: "xavier"
    }
    bias_filler {
      type: "constant"
      value: 0
    }
  }
  bottom: "cake"
  top: "abcd"
}
layer {
  name: "ijkl"
  type: "InnerProduct"
  param { lr_mult: 1 decay_mult: 1}
  param { lr_mult: 2 decay_mult: 0}
  inner_product_param {
    num_output: 2
    weight_filler {
      type: "xavier"
    }
    bias_filler {
      type: "constant"
      value: 0
    }
  }
  bottom: "cake"
  top: "ijkl"
}
layer {
  name: "ijkl"
  type: "InnerProduct"
  param { lr_mult: 1 decay_mult: 1}
  param { lr_mult: 2 decay_mult: 0}
  inner_product_param {
    num_output: 2
    weight_filler {
      type: "xavier"
    }
    bias_filler {
      type: "constant"
      value: 0
    }
  }
  bottom: "cake"
  top: "ijkl"
}
layer {
  name: "qrst"
  type: "InnerProduct"
  param { lr_mult: 1 decay_mult: 1}
  param { lr_mult: 2 decay_mult: 0}
  inner_product_param {
    num_output: 3
    weight_filler {
      type: "xavier"
    }
    bias_filler {
      type: "constant"
      value: 0
    }
  }
  bottom: "cake"
  top: "qrst"
}
input: "uvwx"
input_shape: {
  dim: 1
  dim: 1
  dim: 1
  dim: 3
}
input: "uvwx"
input_shape: {
  dim: 1
  dim: 1
  dim: 1
  dim: 3
}
layer {
  name: "abcd"
  type: "InnerProduct"
  param { lr_mult: 1 decay_mult: 1}
  param { lr_mult: 2 decay_mult: 0}
  inner_product_param {
    num_output: 4
    weight_filler {
      type: "xavier"
    }
    bias_filler {
      type: "constant"
      value: 0
    }
  }
  bottom: "cake"
  top: "abcd"
}
layer {
  name: "abcd"
  type: "InnerProduct"
  param { lr_mult: 1 decay_mult: 1}
  param { lr_mult: 2 decay_mult: 0}
  inner_product_param {
    num_output: 4
    weight_filler {
      type: "xavier"
    }
    bias_filler {
      type: "constant"
      value: 0
    }
  }
  bottom: "cake"
  top: "abcd"
}
layer {
  name: "abcd"
  type: "InnerProduct"
  param { lr_mult: 1 decay_mult: 1}
  param { lr_mult: 2 decay_mult: 0}
  inner_product_param {
    num_output: 4
    weight_filler {
      type: "xavier"
    }
    bias_filler {
      type: "constant"
      value: 0
    }
  }
  bottom: "cake"
  top: "abcd"
}
layer {
  name: "ijkl"
  type: "InnerProduct"
  param { lr_mult: 1 decay_mult: 1}
  param { lr_mult: 2 decay_mult: 0}
  inner_product_param {
    num_output: 2
    weight_filler {
      type: "xavier"
    }
    bias_filler {
      type: "constant"
      value: 0
    }
  }
  bottom: "cake"
  top: "ijkl"
}
layer {
  name: "ijkl"
  type: "InnerProduct"
  param { lr_mult: 1 decay_mult: 1}
  param { lr_mult: 2 decay_mult: 0}
  inner_product_param {
    num_output: 2
    weight_filler {
      type: "xavier"
    }
    bias_filler {
      type: "constant"
      value: 0
    }
  }
  bottom: "cake"
  top: "ijkl"
}
layer {
  name: "qrst"
  type: "InnerProduct"
  param { lr_mult: 1 decay_mult: 1}
  param { lr_mult: 2 decay_mult: 0}
  inner_product_param {
    num_output: 3
    weight_filler {
      type: "xavier"
    }
    bias_filler {
      type: "constant"
      value: 0
    }
  }
  bottom: "cake"
  top: "qrst"
}
input: "uvwx"
input_shape: {
  dim: 1
  dim: 1
  dim: 1
  dim: 3
}
input: "uvwx"
input_shape: {
  dim: 1
  dim: 1
  dim: 1
  dim: 3
}
layer {
  name: "abcd"
  type: "InnerProduct"
  param { lr_mult: 1 decay_mult: 1}
  param { lr_mult: 2 decay_mult: 0}
  inner_product_param {
    num_output: 4
    weight_filler {
      type: "xavier"
    }
    bias_filler {
      type: "constant"
      value: 0
    }
  }
  bottom: "cake"
  top: "abcd"
}
layer {
  name: "abcd"
  type: "InnerProduct"
  param { lr_mult: 1 decay_mult: 1}
  param { lr_mult: 2 decay_mult: 0}
  inner_product_param {
    num_output: 4
    weight_filler {
      type: "xavier"
    }
    bias_filler {
      type: "constant"
      value: 0
    }
  }
  bottom: "cake"
  top: "abcd"
}
layer {
  name: "abcd"
  type: "InnerProduct"
  param { lr_mult: 1 decay_mult: 1}
  param { lr_mult: 2 decay_mult: 0}
  inner_product_param {
    num_output: 4
    weight_filler {
      type: "xavier"
    }
    bias_filler {
      type: "constant"
      value: 0
    }
  }
  bottom: "cake"
  top: "abcd"
}
layer {
  name: "ijkl"
  type: "InnerProduct"
  param { lr_mult: 1 decay_mult: 1}
  param { lr_mult: 2 decay_mult: 0}
  inner_product_param {
    num_output: 2
    weight_filler {
      type: "xavier"
    }
    bias_filler {
      type: "constant"
      value: 0
    }
  }
  bottom: "cake"
  top: "ijkl"
}
layer {
  name: "ijkl"
  type: "InnerProduct"
  param { lr_mult: 1 decay_mult: 1}
  param { lr_mult: 2 decay_mult: 0}
  inner_product_param {
    num_output: 2
    weight_filler {
      type: "xavier"
    }
    bias_filler {
      type: "constant"
      value: 0
    }
  }
  bottom: "cake"
  top: "ijkl"
}
layer {
  name: "qrst"
  type: "InnerProduct"
  param { lr_mult: 1 decay_mult: 1}
  param { lr_mult: 2 decay_mult: 0}
  inner_product_param {
    num_output: 3
    weight_filler {
      type: "xavier"
    }
    bias_filler {
      type: "constant"
      value: 0
    }
  }
  bottom: "cake"
  top: "qrst"
}
input: "uvwx"
input_shape: {
  dim: 1
  dim: 1
  dim: 1
  dim: 3
}
input: "uvwx"
input_shape: {
  dim: 1
  dim: 1
  dim: 1
  dim: 3
}
layer {
  name: "abcd"
  type: "InnerProduct"
  param { lr_mult: 1 decay_mult: 1}
  param { lr_mult: 2 decay_mult: 0}
  inner_product_param {
    num_output: 4
    weight_filler {
      type: "xavier"
    }
    bias_filler {
      type: "constant"
      value: 0
    }
  }
  bottom: "cake"
  top: "abcd"
}
layer {
  name: "abcd"
  type: "InnerProduct"
  param { lr_mult: 1 decay_mult: 1}
  param { lr_mult: 2 decay_mult: 0}
  inner_product_param {
    num_output: 4
    weight_filler {
      type: "xavier"
    }
    bias_filler {
      type: "constant"
      value: 0
    }
  }
  bottom: "cake"
  top: "abcd"
}
layer {
  name: "abcd"
  type: "InnerProduct"
  param { lr_mult: 1 decay_mult: 1}
  param { lr_mult: 2 decay_mult: 0}
  inner_product_param {
    num_output: 4
    weight_filler {
      type: "xavier"
    }
    bias_filler {
      type: "constant"
      value: 0
    }
  }
  bottom: "cake"
  top: "abcd"
}
layer {
  name: "ijkl"
  type: "InnerProduct"
  param { lr_mult: 1 decay_mult: 1}
  param { lr_mult: 2 decay_mult: 0}
  inner_product_param {
    num_output: 2
    weight_filler {
      type: "xavier"
    }
    bias_filler {
      type: "constant"
      value: 0
    }
  }
  bottom: "cake"
  top: "ijkl"
}
layer {
  name: "ijkl"
  type: "InnerProduct"
  param { lr_mult: 1 decay_mult: 1}
  param { lr_mult: 2 decay_mult: 0}
  inner_product_param {
    num_output: 2
    weight_filler {
      type: "xavier"
    }
    bias_filler {
      type: "constant"
      value: 0
    }
  }
  bottom: "cake"
  top: "ijkl"
}
layer {
  name: "qrst"
  type: "InnerProduct"
  param { lr_mult: 1 decay_mult: 1}
  param { lr_mult: 2 decay_mult: 0}
  inner_product_param {
    num_output: 3
    weight_filler {
      type: "xavier"
    }
    bias_filler {
      type: "constant"
      value: 0
    }
  }
  bottom: "cake"
  top: "qrst"
}
input: "uvwx"
input_shape: {
  dim: 1
  dim: 1
  dim: 1
  dim: 3
}
input: "uvwx"
input_shape: {
  dim: 1
  dim: 1
  dim: 1
  dim: 3
}
layer {
  name: "abcd"
  type: "InnerProduct"
  param { lr_mult: 1 decay_mult: 1}
  param { lr_mult: 2 decay_mult: 0}
  inner_product_param {
    num_output: 4
    weight_filler {
      type: "xavier"
    }
    bias_filler {
      type: "constant"
      value: 0
    }
  }
  bottom: "cake"
  top: "abcd"
}
layer {
  name: "abcd"
  type: "InnerProduct"
  param { lr_mult: 1 decay_mult: 1}
  param { lr_mult: 2 decay_mult: 0}
  inner_product_param {
    num_output: 4
    weight_filler {
      type: "xavier"
    }
    bias_filler {
      type: "constant"
      value: 0
    }
  }
  bottom: "cake"
  top: "abcd"
}
layer {
  name: "abcd"
  type: "InnerProduct"
  param { lr_mult: 1 decay_mult: 1}
  param { lr_mult: 2 decay_mult: 0}
  inner_product_param {
    num_output: 4
    weight_filler {
      type: "xavier"
    }
    bias_filler {
      type: "constant"
      value: 0
    }
  }
  bottom: "cake"
  top: "abcd"
}
layer {
  name: "ijkl"
  type: "InnerProduct"
  param { lr_mult: 1 decay_mult: 1}
  param { lr_mult: 2 decay_mult: 0}
  inner_product_param {
    num_output: 2
    weight_filler {
      type: "xavier"
    }
    bias_filler {
      type: "constant"
      value: 0
    }
  }
  bottom: "cake"
  top: "ijkl"
}
layer {
  name: "ijkl"
  type: "InnerProduct"
  param { lr_mult: 1 decay_mult: 1}
  param { lr_mult: 2 decay_mult: 0}
  inner_product_param {
    num_output: 2
    weight_filler {
      type: "xavier"
    }
    bias_filler {
      type: "constant"
      value: 0
    }
  }
  bottom: "cake"
  top: "ijkl"
}
layer {
  name: "qrst"
  type: "InnerProduct"
  param { lr_mult: 1 decay_mult: 1}
  param { lr_mult: 2 decay_mult: 0}
  inner_product_param {
    num_output: 3
    weight_filler {
      type: "xavier"
    }
    bias_filler {
      type: "constant"
      value: 0
    }
  }
  bottom: "cake"
  top: "qrst"
}
input: "uvwx"
input_shape: {
  dim: 1
  dim: 1
  dim: 1
  dim: 3
}
input: "uvwx"
input_shape: {
  dim: 1
  dim: 1
  dim: 1
  dim: 3
}
layer {
  name: "abcd"
  type: "InnerProduct"
  param { lr_mult: 1 decay_mult: 1}
  param { lr_mult: 2 decay_mult: 0}
  inner_product_param {
    num_output: 4
    weight_filler {
      type: "xavier"
    }
    bias_filler {
      type: "constant"
      value: 0
    }
  }
  bottom: "cake"
  top: "abcd"
}
layer {
  name: "abcd"
  type: "InnerProduct"
  param { lr_mult: 1 decay_mult: 1}
  param { lr_mult: 2 decay_mult: 0}
  inner_product_param {
    num_output: 4
    weight_filler {
      type: "xavier"
    }
    bias_filler {
      type: "constant"
      value: 0
    }
  }
  bottom: "cake"
  top: "abcd"
}
layer {
  name: "abcd"
  type: "InnerProduct"
  param { lr_mult: 1 decay_mult: 1}
  param { lr_mult: 2 decay_mult: 0}
  inner_product_param {
    num_output: 4
    weight_filler {
      type: "xavier"
    }
    bias_filler {
      type: "constant"
      value: 0
    }
  }
  bottom: "cake"
  top: "abcd"
}
layer {
  name: "ijkl"
  type: "InnerProduct"
  param { lr_mult: 1 decay_mult: 1}
  param { lr_mult: 2 decay_mult: 0}
  inner_product_param {
    num_output: 2
    weight_filler {
      type: "xavier"
    }
    bias_filler {
      type: "constant"
      value: 0
    }
  }
  bottom: "cake"
  top: "ijkl"
}
layer {
  name: "ijkl"
  type: "InnerProduct"
  param { lr_mult: 1 decay_mult: 1}
  param { lr_mult: 2 decay_mult: 0}
  inner_product_param {
    num_output: 2
    weight_filler {
      type: "xavier"
    }
    bias_filler {
      type: "constant"
      value: 0
    }
  }
  bottom: "cake"
  top: "ijkl"
}
layer {
  name: "qrst"
  type: "InnerProduct"
  param { lr_mult: 1 decay_mult: 1}
  param { lr_mult: 2 decay_mult: 0}
  inner_product_param {
    num_output: 3
    weight_filler {
      type: "xavier"
    }
    bias_filler {
      type: "constant"
      value: 0
    }
  }
  bottom: "cake"
  top: "qrst"
}
input: "uvwx"
input_shape: {
  dim: 1
  dim: 1
  dim: 1
  dim: 3
}
input: "uvwx"
input_shape: {
  dim: 1
  dim: 1
  dim: 1
  dim: 3
}
layer {
  name: "abcd"
  type: "InnerProduct"
  param { lr_mult: 1 decay_mult: 1}
  param { lr_mult: 2 decay_mult: 0}
  inner_product_param {
    num_output: 4
    weight_filler {
      type: "xavier"
    }
    bias_filler {
      type: "constant"
      value: 0
    }
  }
  bottom: "cake"
  top: "abcd"
}
layer {
  name: "abcd"
  type: "InnerProduct"
  param { lr_mult: 1 decay_mult: 1}
  param { lr_mult: 2 decay_mult: 0}
  inner_product_param {
    num_output: 4
    weight_filler {
      type: "xavier"
    }
    bias_filler {
      type: "constant"
      value: 0
    }
  }
  bottom: "cake"
  top: "abcd"
}
layer {
  name: "abcd"
  type: "InnerProduct"
  param { lr_mult: 1 decay_mult: 1}
  param { lr_mult: 2 decay_mult: 0}
  inner_product_param {
    num_output: 4
    weight_filler {
      type: "xavier"
    }
    bias_filler {
      type: "constant"
      value: 0
    }
  }
  bottom: "cake"
  top: "abcd"
}
layer {
  name: "ijkl"
  type: "InnerProduct"
  param { lr_mult: 1 decay_mult: 1}
  param { lr_mult: 2 decay_mult: 0}
  inner_product_param {
    num_output: 2
    weight_filler {
      type: "xavier"
    }
    bias_filler {
      type: "constant"
      value: 0
    }
  }
  bottom: "cake"
  top: "ijkl"
}
layer {
  name: "ijkl"
  type: "InnerProduct"
  param { lr_mult: 1 decay_mult: 1}
  param { lr_mult: 2 decay_mult: 0}
  inner_product_param {
    num_output: 2
    weight_filler {
      type: "xavier"
    }
    bias_filler {
      type: "constant"
      value: 0
    }
  }
  bottom: "cake"
  top: "ijkl"
}
layer {
  name: "qrst"
  type: "InnerProduct"
  param { lr_mult: 1 decay_mult: 1}
  param { lr_mult: 2 decay_mult: 0}
  inner_product_param {
    num_output: 3
    weight_filler {
      type: "xavier"
    }
    bias_filler {
      type: "constant"
      value: 0
    }
  }
  bottom: "cake"
  top: "qrst"
}
input: "uvwx"
input_shape: {
  dim: 1
  dim: 1
  dim: 1
  dim: 3
}
input: "uvwx"
input_shape: {
  dim: 1
  dim: 1
  dim: 1
  dim: 3
}
layer {
  name: "abcd"
  type: "InnerProduct"
  param { lr_mult: 1 decay_mult: 1}
  param { lr_mult: 2 decay_mult: 0}
  inner_product_param {
    num_output: 4
    weight_filler {
      type: "xavier"
    }
    bias_filler {
      type: "constant"
      value: 0
    }
  }
  bottom: "cake"
  top: "abcd"
}
layer {
  name: "abcd"
  type: "InnerProduct"
  param { lr_mult: 1 decay_mult: 1}
  param { lr_mult: 2 decay_mult: 0}
  inner_product_param {
    num_output: 4
    weight_filler {
      type: "xavier"
    }
    bias_filler {
      type: "constant"
      value: 0
    }
  }
  bottom: "cake"
  top: "abcd"
}
layer {
  name: "abcd"
  type: "InnerProduct"
  param { lr_mult: 1 decay_mult: 1}
  param { lr_mult: 2 decay_mult: 0}
  inner_product_param {
    num_output: 4
    weight_filler {
      type: "xavier"
    }
    bias_filler {
      type: "constant"
      value: 0
    }
  }
  bottom: "cake"
  top: "abcd"
}
layer {
  name: "ijkl"
  type: "InnerProduct"
  param { lr_mult: 1 decay_mult: 1}
  param { lr_mult: 2 decay_mult: 0}
  inner_product_param {
    num_output: 2
    weight_filler {
      type: "xavier"
    }
    bias_filler {
      type: "constant"
      value: 0
    }
  }
  bottom: "cake"
  top: "ijkl"
}
layer {
  name: "ijkl"
  type: "InnerProduct"
  param { lr_mult: 1 decay_mult: 1}
  param { lr_mult: 2 decay_mult: 0}
  inner_product_param {
    num_output: 2
    weight_filler {
      type: "xavier"
    }
    bias_filler {
      type: "constant"
      value: 0
    }
  }
  bottom: "cake"
  top: "ijkl"
}
layer {
  name: "qrst"
  type: "InnerProduct"
  param { lr_mult: 1 decay_mult: 1}
  param { lr_mult: 2 decay_mult: 0}
  inner_product_param {
    num_output: 3
    weight_filler {
      type: "xavier"
    }
    bias_filler {
      type: "constant"
      value: 0
    }
  }
  bottom: "cake"
  top: "qrst"
}
input: "uvwx"
input_shape: {
  dim: 1
  dim: 1
  dim: 1
  dim: 3
}
input: "uvwx"
input_shape: {
  dim: 1
  dim: 1
  dim: 1
  dim: 3
}
layer {
  name: "abcd"
  type: "InnerProduct"
  param { lr_mult: 1 decay_mult: 1}
  param { lr_mult: 2 decay_mult: 0}
  inner_product_param {
    num_output: 4
    weight_filler {
      type: "xavier"
    }
    bias_filler {
      type: "constant"
      value: 0
    }
  }
  bottom: "cake"
  top: "abcd"
}
layer {
  name: "abcd"
  type: "InnerProduct"
  param { lr_mult: 1 decay_mult: 1}
  param { lr_mult: 2 decay_mult: 0}
  inner_product_param {
    num_output: 4
    weight_filler {
      type: "xavier"
    }
    bias_filler {
      type: "constant"
      value: 0
    }
  }
  bottom: "cake"
  top: "abcd"
}
layer {
  name: "abcd"
  type: "InnerProduct"
  param { lr_mult: 1 decay_mult: 1}
  param { lr_mult: 2 decay_mult: 0}
  inner_product_param {
    num_output: 4
    weight_filler {
      type: "xavier"
    }
    bias_filler {
      type: "constant"
      value: 0
    }
  }
  bottom: "cake"
  top: "abcd"
}
layer {
  name: "ijkl"
  type: "InnerProduct"
  param { lr_mult: 1 decay_mult: 1}
  param { lr_mult: 2 decay_mult: 0}
  inner_product_param {
    num_output: 2
    weight_filler {
      type: "xavier"
    }
    bias_filler {
      type: "constant"
      value: 0
    }
  }
  bottom: "cake"
  top: "ijkl"
}
layer {
  name: "ijkl"
  type: "InnerProduct"
  param { lr_mult: 1 decay_mult: 1}
  param { lr_mult: 2 decay_mult: 0}
  inner_product_param {
    num_output: 2
    weight_filler {
      type: "xavier"
    }
    bias_filler {
      type: "constant"
      value: 0
    }
  }
  bottom: "cake"
  top: "ijkl"
}
layer {
  name: "qrst"
  type: "InnerProduct"
  param { lr_mult: 1 decay_mult: 1}
  param { lr_mult: 2 decay_mult: 0}
  inner_product_param {
    num_output: 3
    weight_filler {
      type: "xavier"
    }
    bias_filler {
      type: "constant"
      value: 0
    }
  }
  bottom: "cake"
  top: "qrst"
}
input: "uvwx"
input_shape: {
  dim: 1
  dim: 1
  dim: 1
  dim: 3
}
input: "uvwx"
input_shape: {
  dim: 1
  dim: 1
  dim: 1
  dim: 3
}
layer {
  name: "abcd"
  type: "InnerProduct"
  param { lr_mult: 1 decay_mult: 1}
  param { lr_mult: 2 decay_mult: 0}
  inner_product_param {
    num_output: 4
    weight_filler {
      type: "xavier"
    }
    bias_filler {
      type: "constant"
      value: 0
    }
  }
  bottom: "cake"
  top: "abcd"
}
layer {
  name: "abcd"
  type: "InnerProduct"
  param { lr_mult: 1 decay_mult: 1}
  param { lr_mult: 2 decay_mult: 0}
  inner_product_param {
    num_output: 4
    weight_filler {
      type: "xavier"
    }
    bias_filler {
      type: "constant"
      value: 0
    }
  }
  bottom: "cake"
  top: "abcd"
}
layer {
  name: "abcd"
  type: "InnerProduct"
  param { lr_mult: 1 decay_mult: 1}
  param { lr_mult: 2 decay_mult: 0}
  inner_product_param {
    num_output: 4
    weight_filler {
      type: "xavier"
    }
    bias_filler {
      type: "constant"
      value: 0
    }
  }
  bottom: "cake"
  top: "abcd"
}
layer {
  name: "ijkl"
  type: "InnerProduct"
  param { lr_mult: 1 decay_mult: 1}
  param { lr_mult: 2 decay_mult: 0}
  inner_product_param {
    num_output: 2
    weight_filler {
      type: "xavier"
    }
    bias_filler {
      type: "constant"
      value: 0
    }
  }
  bottom: "cake"
  top: "ijkl"
}
layer {
  name: "ijkl"
  type: "InnerProduct"
  param { lr_mult: 1 decay_mult: 1}
  param { lr_mult: 2 decay_mult: 0}
  inner_product_param {
    num_output: 2
    weight_filler {
      type: "xavier"
    }
    bias_filler {
      type: "constant"
      value: 0
    }
  }
  bottom: "cake"
  top: "ijkl"
}
layer {
  name: "qrst"
  type: "InnerProduct"
  param { lr_mult: 1 decay_mult: 1}
  param { lr_mult: 2 decay_mult: 0}
  inner_product_param {
    num_output: 3
    weight_filler {
      type: "xavier"
    }
    bias_filler {
      type: "constant"
      value: 0
    }
  }
  bottom: "cake"
  top: "qrst"
}
input: "uvwx"
input_shape: {
  dim: 1
  dim: 1
  dim: 1
  dim: 3
}
input: "uvwx"
input_shape: {
  dim: 1
  dim: 1
  dim: 1
  dim: 3
}
layer {
  name: "abcd"
  type: "InnerProduct"
  param { lr_mult: 1 decay_mult: 1}
  param { lr_mult: 2 decay_mult: 0}
  inner_product_param {
    num_output: 4
    weight_filler {
      type: "xavier"
    }
    bias_filler {
      type: "constant"
      value: 0
    }
  }
  bottom: "cake"
  top: "abcd"
}
layer {
  name: "abcd"
  type: "InnerProduct"
  param { lr_mult: 1 decay_mult: 1}
  param { lr_mult: 2 decay_mult: 0}
  inner_product_param {
    num_output: 4
    weight_filler {
      type: "xavier"
    }
    bias_filler {
      type: "constant"
      value: 0
    }
  }
  bottom: "cake"
  top: "abcd"
}
layer {
  name: "abcd"
  type: "InnerProduct"
  param { lr_mult: 1 decay_mult: 1}
  param { lr_mult: 2 decay_mult: 0}
  inner_product_param {
    num_output: 4
    weight_filler {
      type: "xavier"
    }
    bias_filler {
      type: "constant"
      value: 0
    }
  }
  bottom: "cake"
  top: "abcd"
}
layer {
  name: "ijkl"
  type: "InnerProduct"
  param { lr_mult: 1 decay_mult: 1}
  param { lr_mult: 2 decay_mult: 0}
  inner_product_param {
    num_output: 2
    weight_filler {
      type: "xavier"
    }
    bias_filler {
      type: "constant"
      value: 0
    }
  }
  bottom: "cake"
  top: "ijkl"
}
layer {
  name: "ijkl"
  type: "InnerProduct"
  param { lr_mult: 1 decay_mult: 1}
  param { lr_mult: 2 decay_mult: 0}
  inner_product_param {
    num_output: 2
    weight_filler {
      type: "xavier"
    }
    bias_filler {
      type: "constant"
      value: 0
    }
  }
  bottom: "cake"
  top: "ijkl"
}
layer {
  name: "qrst"
  type: "InnerProduct"
  param { lr_mult: 1 decay_mult: 1}
  param { lr_mult: 2 decay_mult: 0}
  inner_product_param {
    num_output: 3
    weight_filler {
      type: "xavier"
    }
    bias_filler {
      type: "constant"
      value: 0
    }
  }
  bottom: "cake"
  top: "qrst"
}
input: "uvwx"
input_shape: {
  dim: 1
  dim: 1
  dim: 1
  dim: 3
}
input: "uvwx"
input_shape: {
  dim: 1
  dim: 1
  dim: 1
  dim: 3
}
layer {
  name: "abcd"
  type: "InnerProduct"
  param { lr_mult: 1 decay_mult: 1}
  param { lr_mult: 2 decay_mult: 0}
  inner_product_param {
    num_output: 4
    weight_filler {
      type: "xavier"
    }
    bias_filler {
      type: "constant"
      value: 0
    }
  }
  bottom: "cake"
  top: "abcd"
}
layer {
  name: "abcd"
  type: "InnerProduct"
  param { lr_mult: 1 decay_mult: 1}
  param { lr_mult: 2 decay_mult: 0}
  inner_product_param {
    num_output: 4
    weight_filler {
      type: "xavier"
    }
    bias_filler {
      type: "constant"
      value: 0
    }
  }
  bottom: "cake"
  top: "abcd"
}
layer {
  name: "abcd"
  type: "InnerProduct"
  param { lr_mult: 1 decay_mult: 1}
  param { lr_mult: 2 decay_mult: 0}
  inner_product_param {
    num_output: 4
    weight_filler {
      type: "xavier"
    }
    bias_filler {
      type: "constant"
      value: 0
    }
  }
  bottom: "cake"
  top: "abcd"
}
layer {
  name: "ijkl"
  type: "InnerProduct"
  param { lr_mult: 1 decay_mult: 1}
  param { lr_mult: 2 decay_mult: 0}
  inner_product_param {
    num_output: 2
    weight_filler {
      type: "xavier"
    }
    bias_filler {
      type: "constant"
      value: 0
    }
  }
  bottom: "cake"
  top: "ijkl"
}
layer {
  name: "ijkl"
  type: "InnerProduct"
  param { lr_mult: 1 decay_mult: 1}
  param { lr_mult: 2 decay_mult: 0}
  inner_product_param {
    num_output: 2
    weight_filler {
      type: "xavier"
    }
    bias_filler {
      type: "constant"
      value: 0
    }
  }
  bottom: "cake"
  top: "ijkl"
}
layer {
  name: "qrst"
  type: "InnerProduct"
  param { lr_mult: 1 decay_mult: 1}
  param { lr_mult: 2 decay_mult: 0}
  inner_product_param {
    num_output: 3
    weight_filler {
      type: "xavier"
    }
    bias_filler {
      type: "constant"
      value: 0
    }
  }
  bottom: "cake"
  top: "qrst"
}
input: "uvwx"
input_shape: {
  dim: 1
  dim: 1
  dim: 1
  dim: 3
}
input: "uvwx"
input_shape: {
  dim: 1
  dim: 1
  dim: 1
  dim: 3
}
layer {
  name: "abcd"
  type: "InnerProduct"
  param { lr_mult: 1 decay_mult: 1}
  param { lr_mult: 2 decay_mult: 0}
  inner_product_param {
    num_output: 4
    weight_filler {
      type: "xavier"
    }
    bias_filler {
      type: "constant"
      value: 0
    }
  }
  bottom: "cake"
  top: "abcd"
}
layer {
  name: "abcd"
  type: "InnerProduct"
  param { lr_mult: 1 decay_mult: 1}
  param { lr_mult: 2 decay_mult: 0}
  inner_product_param {
    num_output: 4
    weight_filler {
      type: "xavier"
    }
    bias_filler {
      type: "constant"
      value: 0
    }
  }
  bottom: "cake"
  top: "abcd"
}
layer {
  name: "abcd"
  type: "InnerProduct"
  param { lr_mult: 1 decay_mult: 1}
  param { lr_mult: 2 decay_mult: 0}
  inner_product_param {
    num_output: 4
    weight_filler {
      type: "xavier"
    }
    bias_filler {
      type: "constant"
      value: 0
    }
  }
  bottom: "cake"
  top: "abcd"
}
layer {
  name: "ijkl"
  type: "InnerProduct"
  param { lr_mult: 1 decay_mult: 1}
  param { lr_mult: 2 decay_mult: 0}
  inner_product_param {
    num_output: 2
    weight_filler {
      type: "xavier"
    }
    bias_filler {
      type: "constant"
      value: 0
    }
  }
  bottom: "cake"
  top: "ijkl"
}
layer {
  name: "ijkl"
  type: "InnerProduct"
  param { lr_mult: 1 decay_mult: 1}
  param { lr_mult: 2 decay_mult: 0}
  inner_product_param {
    num_output: 2
    weight_filler {
      type: "xavier"
    }
    bias_filler {
      type: "constant"
      value: 0
    }
  }
  bottom: "cake"
  top: "ijkl"
}
layer {
  name: "qrst"
  type: "InnerProduct"
  param { lr_mult: 1 decay_mult: 1}
  param { lr_mult: 2 decay_mult: 0}
  inner_product_param {
    num_output: 3
    weight_filler {
      type: "xavier"
    }
    bias_filler {
      type: "constant"
      value: 0
    }
  }
  bottom: "cake"
  top: "qrst"
}
input: "uvwx"
input_shape: {
  dim: 1
  dim: 1
  dim: 1
  dim: 3
}
input: "uvwx"
input_shape: {
  dim: 1
  dim: 1
  dim: 1
  dim: 3
}
layer {
  name: "abcd"
  type: "InnerProduct"
  param { lr_mult: 1 decay_mult: 1}
  param { lr_mult: 2 decay_mult: 0}
  inner_product_param {
    num_output: 4
    weight_filler {
      type: "xavier"
    }
    bias_filler {
      type: "constant"
      value: 0
    }
  }
  bottom: "cake"
  top: "abcd"
}
layer {
  name: "abcd"
  type: "InnerProduct"
  param { lr_mult: 1 decay_mult: 1}
  param { lr_mult: 2 decay_mult: 0}
  inner_product_param {
    num_output: 4
    weight_filler {
      type: "xavier"
    }
    bias_filler {
      type: "constant"
      value: 0
    }
  }
  bottom: "cake"
  top: "abcd"
}
layer {
  name: "abcd"
  type: "InnerProduct"
  param { lr_mult: 1 decay_mult: 1}
  param { lr_mult: 2 decay_mult: 0}
  inner_product_param {
    num_output: 4
    weight_filler {
      type: "xavier"
    }
    bias_filler {
      type: "constant"
      value: 0
    }
  }
  bottom: "cake"
  top: "abcd"
}
layer {
  name: "ijkl"
  type: "InnerProduct"
  param { lr_mult: 1 decay_mult: 1}
  param { lr_mult: 2 decay_mult: 0}
  inner_product_param {
    num_output: 2
    weight_filler {
      type: "xavier"
    }
    bias_filler {
      type: "constant"
      value: 0
    }
  }
  bottom: "cake"
  top: "ijkl"
}
layer {
  name: "ijkl"
  type: "InnerProduct"
  param { lr_mult: 1 decay_mult: 1}
  param { lr_mult: 2 decay_mult: 0}
  inner_product_param {
    num_output: 2
    weight_filler {
      type: "xavier"
    }
    bias_filler {
      type: "constant"
      value: 0
    }
  }
  bottom: "cake"
  top: "ijkl"
}
layer {
  name: "qrst"
  type: "InnerProduct"
  param { lr_mult: 1 decay_mult: 1}
  param { lr_mult: 2 decay_mult: 0}
  inner_product_param {
    num_output: 3
    weight_filler {
      type: "xavier"
    }
    bias_filler {
      type: "constant"
      value: 0
    }
  }
  bottom: "cake"
  top: "qrst"
}
input: "uvwx"
input_shape: {
  dim: 1
  dim: 1
  dim: 1
  dim: 3
}
input: "uvwx"
input_shape: {
  dim: 1
  dim: 1
  dim: 1
  dim: 3
}
layer {
  name: "abcd"
  type: "InnerProduct"
  param { lr_mult: 1 decay_mult: 1}
  param { lr_mult: 2 decay_mult: 0}
  inner_product_param {
    num_output: 4
    weight_filler {
      type: "xavier"
    }
    bias_filler {
      type: "constant"
      value: 0
    }
  }
  bottom: "cake"
  top: "abcd"
}
layer {
  name: "abcd"
  type: "InnerProduct"
  param { lr_mult: 1 decay_mult: 1}
  param { lr_mult: 2 decay_mult: 0}
  inner_product_param {
    num_output: 4
    weight_filler {
      type: "xavier"
    }
    bias_filler {
      type: "constant"
      value: 0
    }
  }
  bottom: "cake"
  top: "abcd"
}
layer {
  name: "abcd"
  type: "InnerProduct"
  param { lr_mult: 1 decay_mult: 1}
  param { lr_mult: 2 decay_mult: 0}
  inner_product_param {
    num_output: 4
    weight_filler {
      type: "xavier"
    }
    bias_filler {
      type: "constant"
      value: 0
    }
  }
  bottom: "cake"
  top: "abcd"
}
layer {
  name: "ijkl"
  type: "InnerProduct"
  param { lr_mult: 1 decay_mult: 1}
  param { lr_mult: 2 decay_mult: 0}
  inner_product_param {
    num_output: 2
    weight_filler {
      type: "xavier"
    }
    bias_filler {
      type: "constant"
      value: 0
    }
  }
  bottom: "cake"
  top: "ijkl"
}
layer {
  name: "ijkl"
  type: "InnerProduct"
  param { lr_mult: 1 decay_mult: 1}
  param { lr_mult: 2 decay_mult: 0}
  inner_product_param {
    num_output: 2
    weight_filler {
      type: "xavier"
    }
    bias_filler {
      type: "constant"
      value: 0
    }
  }
  bottom: "cake"
  top: "ijkl"
}
layer {
  name: "qrst"
  type: "InnerProduct"
  param { lr_mult: 1 decay_mult: 1}
  param { lr_mult: 2 decay_mult: 0}
  inner_product_param {
    num_output: 3
    weight_filler {
      type: "xavier"
    }
    bias_filler {
      type: "constant"
      value: 0
    }
  }
  bottom: "cake"
  top: "qrst"
}
input: "uvwx"
input_shape: {
  dim: 1
  dim: 1
  dim: 1
  dim: 3
}
input: "uvwx"
input_shape: {
  dim: 1
  dim: 1
  dim: 1
  dim: 3
}
layer {
  name: "abcd"
  type: "InnerProduct"
  param { lr_mult: 1 decay_mult: 1}
  param { lr_mult: 2 decay_mult: 0}
  inner_product_param {
    num_output: 4
    weight_filler {
      type: "xavier"
    }
    bias_filler {
      type: "constant"
      value: 0
    }
  }
  bottom: "cake"
  top: "abcd"
}
layer {
  name: "abcd"
  type: "InnerProduct"
  param { lr_mult: 1 decay_mult: 1}
  param { lr_mult: 2 decay_mult: 0}
  inner_product_param {
    num_output: 4
    weight_filler {
      type: "xavier"
    }
    bias_filler {
      type: "constant"
      value: 0
    }
  }
  bottom: "cake"
  top: "abcd"
}
layer {
  name: "abcd"
  type: "InnerProduct"
  param { lr_mult: 1 decay_mult: 1}
  param { lr_mult: 2 decay_mult: 0}
  inner_product_param {
    num_output: 4
    weight_filler {
      type: "xavier"
    }
    bias_filler {
      type: "constant"
      value: 0
    }
  }
  bottom: "cake"
  top: "abcd"
}
layer {
  name: "ijkl"
  type: "InnerProduct"
  param { lr_mult: 1 decay_mult: 1}
  param { lr_mult: 2 decay_mult: 0}
  inner_product_param {
    num_output: 2
    weight_filler {
      type: "xavier"
    }
    bias_filler {
      type: "constant"
      value: 0
    }
  }
  bottom: "cake"
  top: "ijkl"
}
layer {
  name: "ijkl"
  type: "InnerProduct"
  param { lr_mult: 1 decay_mult: 1}
  param { lr_mult: 2 decay_mult: 0}
  inner_product_param {
    num_output: 2
    weight_filler {
      type: "xavier"
    }
    bias_filler {
      type: "constant"
      value: 0
    }
  }
  bottom: "cake"
  top: "ijkl"
}
layer {
  name: "qrst"
  type: "InnerProduct"
  param { lr_mult: 1 decay_mult: 1}
  param { lr_mult: 2 decay_mult: 0}
  inner_product_param {
    num_output: 3
    weight_filler {
      type: "xavier"
    }
    bias_filler {
      type: "constant"
      value: 0
    }
  }
  bottom: "cake"
  top: "qrst"
}
input: "uvwx"
input_shape: {
  dim: 1
  dim: 1
  dim: 1
  dim: 3
}
input: "uvwx"
input_shape: {
  dim: 1
  dim: 1
  dim: 1
  dim: 3
}
layer {
  name: "abcd"
  type: "InnerProduct"
  param { lr_mult: 1 decay_mult: 1}
  param { lr_mult: 2 decay_mult: 0}
  inner_product_param {
    num_output: 4
    weight_filler {
      type: "xavier"
    }
    bias_filler {
      type: "constant"
      value: 0
    }
  }
  bottom: "cake"
  top: "abcd"
}
layer {
  name: "abcd"
  type: "InnerProduct"
  param { lr_mult: 1 decay_mult: 1}
  param { lr_mult: 2 decay_mult: 0}
  inner_product_param {
    num_output: 4
    weight_filler {
      type: "xavier"
    }
    bias_filler {
      type: "constant"
      value: 0
    }
  }
  bottom: "cake"
  top: "abcd"
}
layer {
  name: "abcd"
  type: "InnerProduct"
  param { lr_mult: 1 decay_mult: 1}
  param { lr_mult: 2 decay_mult: 0}
  inner_product_param {
    num_output: 4
    weight_filler {
      type: "xavier"
    }
    bias_filler {
      type: "constant"
      value: 0
    }
  }
  bottom: "cake"
  top: "abcd"
}
layer {
  name: "ijkl"
  type: "InnerProduct"
  param { lr_mult: 1 decay_mult: 1}
  param { lr_mult: 2 decay_mult: 0}
  inner_product_param {
    num_output: 2
    weight_filler {
      type: "xavier"
    }
    bias_filler {
      type: "constant"
      value: 0
    }
  }
  bottom: "cake"
  top: "ijkl"
}
layer {
  name: "ijkl"
  type: "InnerProduct"
  param { lr_mult: 1 decay_mult: 1}
  param { lr_mult: 2 decay_mult: 0}
  inner_product_param {
    num_output: 2
    weight_filler {
      type: "xavier"
    }
    bias_filler {
      type: "constant"
      value: 0
    }
  }
  bottom: "cake"
  top: "ijkl"
}
layer {
  name: "qrst"
  type: "InnerProduct"
  param { lr_mult: 1 decay_mult: 1}
  param { lr_mult: 2 decay_mult: 0}
  inner_product_param {
    num_output: 3
    weight_filler {
      type: "xavier"
    }
    bias_filler {
      type: "constant"
      value: 0
    }
  }
  bottom: "cake"
  top: "qrst"
}
input: "uvwx"
input_shape: {
  dim: 1
  dim: 1
  dim: 1
  dim: 3
}
input: "uvwx"
input_shape: {
  dim: 1
  dim: 1
  dim: 1
  dim: 3
}
layer {
  name: "abcd"
  type: "InnerProduct"
  param { lr_mult: 1 decay_mult: 1}
  param { lr_mult: 2 decay_mult: 0}
  inner_product_param {
    num_output: 4
    weight_filler {
      type: "xavier"
    }
    bias_filler {
      type: "constant"
      value: 0
    }
  }
  bottom: "cake"
  top: "abcd"
}
layer {
  name: "abcd"
  type: "InnerProduct"
  param { lr_mult: 1 decay_mult: 1}
  param { lr_mult: 2 decay_mult: 0}
  inner_product_param {
    num_output: 4
    weight_filler {
      type: "xavier"
    }
    bias_filler {
      type: "constant"
      value: 0
    }
  }
  bottom: "cake"
  top: "abcd"
}
layer {
  name: "abcd"
  type: "InnerProduct"
  param { lr_mult: 1 decay_mult: 1}
  param { lr_mult: 2 decay_mult: 0}
  inner_product_param {
    num_output: 4
    weight_filler {
      type: "xavier"
    }
    bias_filler {
      type: "constant"
      value: 0
    }
  }
  bottom: "cake"
  top: "abcd"
}
layer {
  name: "ijkl"
  type: "InnerProduct"
  param { lr_mult: 1 decay_mult: 1}
  param { lr_mult: 2 decay_mult: 0}
  inner_product_param {
    num_output: 2
    weight_filler {
      type: "xavier"
    }
    bias_filler {
      type: "constant"
      value: 0
    }
  }
  bottom: "cake"
  top: "ijkl"
}
layer {
  name: "ijkl"
  type: "InnerProduct"
  param { lr_mult: 1 decay_mult: 1}
  param { lr_mult: 2 decay_mult: 0}
  inner_product_param {
    num_output: 2
    weight_filler {
      type: "xavier"
    }
    bias_filler {
      type: "constant"
      value: 0
    }
  }
  bottom: "cake"
  top: "ijkl"
}
layer {
  name: "qrst"
  type: "InnerProduct"
  param { lr_mult: 1 decay_mult: 1}
  param { lr_mult: 2 decay_mult: 0}
  inner_product_param {
    num_output: 3
    weight_filler {
      type: "xavier"
    }
    bias_filler {
      type: "constant"
      value: 0
    }
  }
  bottom: "cake"
  top: "qrst"
}
input: "uvwx"
input_shape: {
  dim: 1
  dim: 1
  dim: 1
  dim: 3
}
input: "uvwx"
input_shape: {
  dim: 1
  dim: 1
  dim: 1
  dim: 3
}
layer {
  name: "abcd"
  type: "InnerProduct"
  param { lr_mult: 1 decay_mult: 1}
  param { lr_mult: 2 decay_mult: 0}
  inner_product_param {
    num_output: 4
    weight_filler {
      type: "xavier"
    }
    bias_filler {
      type: "constant"
      value: 0
    }
  }
  bottom: "cake"
  top: "abcd"
}
layer {
  name: "abcd"
  type: "InnerProduct"
  param { lr_mult: 1 decay_mult: 1}
  param { lr_mult: 2 decay_mult: 0}
  inner_product_param {
    num_output: 4
    weight_filler {
      type: "xavier"
    }
    bias_filler {
      type: "constant"
      value: 0
    }
  }
  bottom: "cake"
  top: "abcd"
}
layer {
  name: "abcd"
  type: "InnerProduct"
  param { lr_mult: 1 decay_mult: 1}
  param { lr_mult: 2 decay_mult: 0}
  inner_product_param {
    num_output: 4
    weight_filler {
      type: "xavier"
    }
    bias_filler {
      type: "constant"
      value: 0
    }
  }
  bottom: "cake"
  top: "abcd"
}
layer {
  name: "ijkl"
  type: "InnerProduct"
  param { lr_mult: 1 decay_mult: 1}
  param { lr_mult: 2 decay_mult: 0}
  inner_product_param {
    num_output: 2
    weight_filler {
      type: "xavier"
    }
    bias_filler {
      type: "constant"
      value: 0
    }
  }
  bottom: "cake"
  top: "ijkl"
}
layer {
  name: "ijkl"
  type: "InnerProduct"
  param { lr_mult: 1 decay_mult: 1}
  param { lr_mult: 2 decay_mult: 0}
  inner_product_param {
    num_output: 2
    weight_filler {
      type: "xavier"
    }
    bias_filler {
      type: "constant"
      value: 0
    }
  }
  bottom: "cake"
  top: "ijkl"
}
layer {
  name: "qrst"
  type: "InnerProduct"
  param { lr_mult: 1 decay_mult: 1}
  param { lr_mult: 2 decay_mult: 0}
  inner_product_param {
    num_output: 3
    weight_filler {
      type: "xavier"
    }
    bias_filler {
      type: "constant"
      value: 0
    }
  }
  bottom: "cake"
  top: "qrst"
}
input: "uvwx"
input_shape: {
  dim: 1
  dim: 1
  dim: 1
  dim: 3
}
input: "uvwx"
input_shape: {
  dim: 1
  dim: 1
  dim: 1
  dim: 3
}
layer {
  name: "abcd"
  type: "InnerProduct"
  param { lr_mult: 1 decay_mult: 1}
  param { lr_mult: 2 decay_mult: 0}
  inner_product_param {
    num_output: 4
    weight_filler {
      type: "xavier"
    }
    bias_filler {
      type: "constant"
      value: 0
    }
  }
  bottom: "cake"
  top: "abcd"
}
layer {
  name: "abcd"
  type: "InnerProduct"
  param { lr_mult: 1 decay_mult: 1}
  param { lr_mult: 2 decay_mult: 0}
  inner_product_param {
    num_output: 4
    weight_filler {
      type: "xavier"
    }
    bias_filler {
      type: "constant"
      value: 0
    }
  }
  bottom: "cake"
  top: "abcd"
}
layer {
  name: "abcd"
  type: "InnerProduct"
  param { lr_mult: 1 decay_mult: 1}
  param { lr_mult: 2 decay_mult: 0}
  inner_product_param {
    num_output: 4
    weight_filler {
      type: "xavier"
    }
    bias_filler {
      type: "constant"
      value: 0
    }
  }
  bottom: "cake"
  top: "abcd"
}
layer {
  name: "ijkl"
  type: "InnerProduct"
  param { lr_mult: 1 decay_mult: 1}
  param { lr_mult: 2 decay_mult: 0}
  inner_product_param {
    num_output: 2
    weight_filler {
      type: "xavier"
    }
    bias_filler {
      type: "constant"
      value: 0
    }
  }
  bottom: "cake"
  top: "ijkl"
}
layer {
  name: "ijkl"
  type: "InnerProduct"
  param { lr_mult: 1 decay_mult: 1}
  param { lr_mult: 2 decay_mult: 0}
  inner_product_param {
    num_output: 2
    weight_filler {
      type: "xavier"
    }
    bias_filler {
      type: "constant"
      value: 0
    }
  }
  bottom: "cake"
  top: "ijkl"
}
layer {
  name: "qrst"
  type: "InnerProduct"
  param { lr_mult: 1 decay_mult: 1}
  param { lr_mult: 2 decay_mult: 0}
  inner_product_param {
    num_output: 3
    weight_filler {
      type: "xavier"
    }
    bias_filler {
      type: "constant"
      value: 0
    }
  }
  bottom: "cake"
  top: "qrst"
}
input: "uvwx"
input_shape: {
  dim: 1
  dim: 1
  dim: 1
  dim: 3
}
input: "uvwx"
input_shape: {
  dim: 1
  dim: 1
  dim: 1
  dim: 3
}
layer {
  name: "abcd"
  type: "InnerProduct"
  param { lr_mult: 1 decay_mult: 1}
  param { lr_mult: 2 decay_mult: 0}
  inner_product_param {
    num_output: 4
    weight_filler {
      type: "xavier"
    }
    bias_filler {
      type: "constant"
      value: 0
    }
  }
  bottom: "cake"
  top: "abcd"
}
layer {
  name: "abcd"
  type: "InnerProduct"
  param { lr_mult: 1 decay_mult: 1}
  param { lr_mult: 2 decay_mult: 0}
  inner_product_param {
    num_output: 4
    weight_filler {
      type: "xavier"
    }
    bias_filler {
      type: "constant"
      value: 0
    }
  }
  bottom: "cake"
  top: "abcd"
}
layer {
  name: "abcd"
  type: "InnerProduct"
  param { lr_mult: 1 decay_mult: 1}
  param { lr_mult: 2 decay_mult: 0}
  inner_product_param {
    num_output: 4
    weight_filler {
      type: "xavier"
    }
    bias_filler {
      type: "constant"
      value: 0
    }
  }
  bottom: "cake"
  top: "abcd"
}
layer {
  name: "ijkl"
  type: "InnerProduct"
  param { lr_mult: 1 decay_mult: 1}
  param { lr_mult: 2 decay_mult: 0}
  inner_product_param {
    num_output: 2
    weight_filler {
      type: "xavier"
    }
    bias_filler {
      type: "constant"
      value: 0
    }
  }
  bottom: "cake"
  top: "ijkl"
}
layer {
  name: "ijkl"
  type: "InnerProduct"
  param { lr_mult: 1 decay_mult: 1}
  param { lr_mult: 2 decay_mult: 0}
  inner_product_param {
    num_output: 2
    weight_filler {
      type: "xavier"
    }
    bias_filler {
      type: "constant"
      value: 0
    }
  }
  bottom: "cake"
  top: "ijkl"
}
layer {
  name: "qrst"
  type: "InnerProduct"
  param { lr_mult: 1 decay_mult: 1}
  param { lr_mult: 2 decay_mult: 0}
  inner_product_param {
    num_output: 3
    weight_filler {
      type: "xavier"
    }
    bias_filler {
      type: "constant"
      value: 0
    }
  }
  bottom: "cake"
  top: "qrst"
}
input: "uvwx"
input_shape: {
  dim: 1
  dim: 1
  dim: 1
  dim: 3
}
input: "uvwx"
input_shape: {
  dim: 1
  dim: 1
  dim: 1
  dim: 3
}
layer {
  name: "abcd"
  type: "InnerProduct"
  param { lr_mult: 1 decay_mult: 1}
  param { lr_mult: 2 decay_mult: 0}
  inner_product_param {
    num_output: 4
    weight_filler {
      type: "xavier"
    }
    bias_filler {
      type: "constant"
      value: 0
    }
  }
  bottom: "cake"
  top: "abcd"
}
layer {
  name: "abcd"
  type: "InnerProduct"
  param { lr_mult: 1 decay_mult: 1}
  param { lr_mult: 2 decay_mult: 0}
  inner_product_param {
    num_output: 4
    weight_filler {
      type: "xavier"
    }
    bias_filler {
      type: "constant"
      value: 0
    }
  }
  bottom: "cake"
  top: "abcd"
}
layer {
  name: "abcd"
  type: "InnerProduct"
  param { lr_mult: 1 decay_mult: 1}
  param { lr_mult: 2 decay_mult: 0}
  inner_product_param {
    num_output: 4
    weight_filler {
      type: "xavier"
    }
    bias_filler {
      type: "constant"
      value: 0
    }
  }
  bottom: "cake"
  top: "abcd"
}
layer {
  name: "ijkl"
  type: "InnerProduct"
  param { lr_mult: 1 decay_mult: 1}
  param { lr_mult: 2 decay_mult: 0}
  inner_product_param {
    num_output: 2
    weight_filler {
      type: "xavier"
    }
    bias_filler {
      type: "constant"
      value: 0
    }
  }
  bottom: "cake"
  top: "ijkl"
}
layer {
  name: "ijkl"
  type: "InnerProduct"
  param { lr_mult: 1 decay_mult: 1}
  param { lr_mult: 2 decay_mult: 0}
  inner_product_param {
    num_output: 2
    weight_filler {
      type: "xavier"
    }
    bias_filler {
      type: "constant"
      value: 0
    }
  }
  bottom: "cake"
  top: "ijkl"
}
layer {
  name: "qrst"
  type: "InnerProduct"
  param { lr_mult: 1 decay_mult: 1}
  param { lr_mult: 2 decay_mult: 0}
  inner_product_param {
    num_output: 3
    weight_filler {
      type: "xavier"
    }
    bias_filler {
      type: "constant"
      value: 0
    }
  }
  bottom: "cake"
  top: "qrst"
}
input: "uvwx"
input_shape: {
  dim: 1
  dim: 1
  dim: 1
  dim: 3
}
input: "uvwx"
input_shape: {
  dim: 1
  dim: 1
  dim: 1
  dim: 3
}
layer {
  name: "abcd"
  type: "InnerProduct"
  param { lr_mult: 1 decay_mult: 1}
  param { lr_mult: 2 decay_mult: 0}
  inner_product_param {
    num_output: 4
    weight_filler {
      type: "xavier"
    }
    bias_filler {
      type: "constant"
      value: 0
    }
  }
  bottom: "cake"
  top: "abcd"
}
layer {
  name: "abcd"
  type: "InnerProduct"
  param { lr_mult: 1 decay_mult: 1}
  param { lr_mult: 2 decay_mult: 0}
  inner_product_param {
    num_output: 4
    weight_filler {
      type: "xavier"
    }
    bias_filler {
      type: "constant"
      value: 0
    }
  }
  bottom: "cake"
  top: "abcd"
}
layer {
  name: "abcd"
  type: "InnerProduct"
  param { lr_mult: 1 decay_mult: 1}
  param { lr_mult: 2 decay_mult: 0}
  inner_product_param {
    num_output: 4
    weight_filler {
      type: "xavier"
    }
    bias_filler {
      type: "constant"
      value: 0
    }
  }
  bottom: "cake"
  top: "abcd"
}
layer {
  name: "ijkl"
  type: "InnerProduct"
  param { lr_mult: 1 decay_mult: 1}
  param { lr_mult: 2 decay_mult: 0}
  inner_product_param {
    num_output: 2
    weight_filler {
      type: "xavier"
    }
    bias_filler {
      type: "constant"
      value: 0
    }
  }
  bottom: "cake"
  top: "ijkl"
}
layer {
  name: "ijkl"
  type: "InnerProduct"
  param { lr_mult: 1 decay_mult: 1}
  param { lr_mult: 2 decay_mult: 0}
  inner_product_param {
    num_output: 2
    weight_filler {
      type: "xavier"
    }
    bias_filler {
      type: "constant"
      value: 0
    }
  }
  bottom: "cake"
  top: "ijkl"
}
layer {
  name: "qrst"
  type: "InnerProduct"
  param { lr_mult: 1 decay_mult: 1}
  param { lr_mult: 2 decay_mult: 0}
  inner_product_param {
    num_output: 3
    weight_filler {
      type: "xavier"
    }
    bias_filler {
      type: "constant"
      value: 0
    }
  }
  bottom: "cake"
  top: "qrst"
}
input: "uvwx"
input_shape: {
  dim: 1
  dim: 1
  dim: 1
  dim: 3
}
input: "uvwx"
input_shape: {
  dim: 1
  dim: 1
  dim: 1
  dim: 3
}
layer {
  name: "abcd"
  type: "InnerProduct"
  param { lr_mult: 1 decay_mult: 1}
  param { lr_mult: 2 decay_mult: 0}
  inner_product_param {
    num_output: 4
    weight_filler {
      type: "xavier"
    }
    bias_filler {
      type: "constant"
      value: 0
    }
  }
  bottom: "cake"
  top: "abcd"
}
layer {
  name: "abcd"
  type: "InnerProduct"
  param { lr_mult: 1 decay_mult: 1}
  param { lr_mult: 2 decay_mult: 0}
  inner_product_param {
    num_output: 4
    weight_filler {
      type: "xavier"
    }
    bias_filler {
      type: "constant"
      value: 0
    }
  }
  bottom: "cake"
  top: "abcd"
}
layer {
  name: "abcd"
  type: "InnerProduct"
  param { lr_mult: 1 decay_mult: 1}
  param { lr_mult: 2 decay_mult: 0}
  inner_product_param {
    num_output: 4
    weight_filler {
      type: "xavier"
    }
    bias_filler {
      type: "constant"
      value: 0
    }
  }
  bottom: "cake"
  top: "abcd"
}
layer {
  name: "ijkl"
  type: "InnerProduct"
  param { lr_mult: 1 decay_mult: 1}
  param { lr_mult: 2 decay_mult: 0}
  inner_product_param {
    num_output: 2
    weight_filler {
      type: "xavier"
    }
    bias_filler {
      type: "constant"
      value: 0
    }
  }
  bottom: "cake"
  top: "ijkl"
}
layer {
  name: "ijkl"
  type: "InnerProduct"
  param { lr_mult: 1 decay_mult: 1}
  param { lr_mult: 2 decay_mult: 0}
  inner_product_param {
    num_output: 2
    weight_filler {
      type: "xavier"
    }
    bias_filler {
      type: "constant"
      value: 0
    }
  }
  bottom: "cake"
  top: "ijkl"
}
layer {
  name: "qrst"
  type: "InnerProduct"
  param { lr_mult: 1 decay_mult: 1}
  param { lr_mult: 2 decay_mult: 0}
  inner_product_param {
    num_output: 3
    weight_filler {
      type: "xavier"
    }
    bias_filler {
      type: "constant"
      value: 0
    }
  }
  bottom: "cake"
  top: "qrst"
}
input: "uvwx"
input_shape: {
  dim: 1
  dim: 1
  dim: 1
  dim: 3
}
input: "uvwx"
input_shape: {
  dim: 1
  dim: 1
  dim: 1
  dim: 3
}
layer {
  name: "abcd"
  type: "InnerProduct"
  param { lr_mult: 1 decay_mult: 1}
  param { lr_mult: 2 decay_mult: 0}
  inner_product_param {
    num_output: 4
    weight_filler {
      type: "xavier"
    }
    bias_filler {
      type: "constant"
      value: 0
    }
  }
  bottom: "cake"
  top: "abcd"
}
layer {
  name: "abcd"
  type: "InnerProduct"
  param { lr_mult: 1 decay_mult: 1}
  param { lr_mult: 2 decay_mult: 0}
  inner_product_param {
    num_output: 4
    weight_filler {
      type: "xavier"
    }
    bias_filler {
      type: "constant"
      value: 0
    }
  }
  bottom: "cake"
  top: "abcd"
}
layer {
  name: "abcd"
  type: "InnerProduct"
  param { lr_mult: 1 decay_mult: 1}
  param { lr_mult: 2 decay_mult: 0}
  inner_product_param {
    num_output: 4
    weight_filler {
      type: "xavier"
    }
    bias_filler {
      type: "constant"
      value: 0
    }
  }
  bottom: "cake"
  top: "abcd"
}
layer {
  name: "ijkl"
  type: "InnerProduct"
  param { lr_mult: 1 decay_mult: 1}
  param { lr_mult: 2 decay_mult: 0}
  inner_product_param {
    num_output: 2
    weight_filler {
      type: "xavier"
    }
    bias_filler {
      type: "constant"
      value: 0
    }
  }
  bottom: "cake"
  top: "ijkl"
}
layer {
  name: "ijkl"
  type: "InnerProduct"
  param { lr_mult: 1 decay_mult: 1}
  param { lr_mult: 2 decay_mult: 0}
  inner_product_param {
    num_output: 2
    weight_filler {
      type: "xavier"
    }
    bias_filler {
      type: "constant"
      value: 0
    }
  }
  bottom: "cake"
  top: "ijkl"
}
layer {
  name: "qrst"
  type: "InnerProduct"
  param { lr_mult: 1 decay_mult: 1}
  param { lr_mult: 2 decay_mult: 0}
  inner_product_param {
    num_output: 3
    weight_filler {
      type: "xavier"
    }
    bias_filler {
      type: "constant"
      value: 0
    }
  }
  bottom: "cake"
  top: "qrst"
}
input: "uvwx"
input_shape: {
  dim: 1
  dim: 1
  dim: 1
  dim: 3
}
input: "uvwx"
input_shape: {
  dim: 1
  dim: 1
  dim: 1
  dim: 3
}
layer {
  name: "abcd"
  type: "InnerProduct"
  param { lr_mult: 1 decay_mult: 1}
  param { lr_mult: 2 decay_mult: 0}
  inner_product_param {
    num_output: 4
    weight_filler {
      type: "xavier"
    }
    bias_filler {
      type: "constant"
      value: 0
    }
  }
  bottom: "cake"
  top: "abcd"
}
layer {
  name: "abcd"
  type: "InnerProduct"
  param { lr_mult: 1 decay_mult: 1}
  param { lr_mult: 2 decay_mult: 0}
  inner_product_param {
    num_output: 4
    weight_filler {
      type: "xavier"
    }
    bias_filler {
      type: "constant"
      value: 0
    }
  }
  bottom: "cake"
  top: "abcd"
}
layer {
  name: "abcd"
  type: "InnerProduct"
  param { lr_mult: 1 decay_mult: 1}
  param { lr_mult: 2 decay_mult: 0}
  inner_product_param {
    num_output: 4
    weight_filler {
      type: "xavier"
    }
    bias_filler {
      type: "constant"
      value: 0
    }
  }
  bottom: "cake"
  top: "abcd"
}
layer {
  name: "ijkl"
  type: "InnerProduct"
  param { lr_mult: 1 decay_mult: 1}
  param { lr_mult: 2 decay_mult: 0}
  inner_product_param {
    num_output: 2
    weight_filler {
      type: "xavier"
    }
    bias_filler {
      type: "constant"
      value: 0
    }
  }
  bottom: "cake"
  top: "ijkl"
}
layer {
  name: "ijkl"
  type: "InnerProduct"
  param { lr_mult: 1 decay_mult: 1}
  param { lr_mult: 2 decay_mult: 0}
  inner_product_param {
    num_output: 2
    weight_filler {
      type: "xavier"
    }
    bias_filler {
      type: "constant"
      value: 0
    }
  }
  bottom: "cake"
  top: "ijkl"
}
layer {
  name: "qrst"
  type: "InnerProduct"
  param { lr_mult: 1 decay_mult: 1}
  param { lr_mult: 2 decay_mult: 0}
  inner_product_param {
    num_output: 3
    weight_filler {
      type: "xavier"
    }
    bias_filler {
      type: "constant"
      value: 0
    }
  }
  bottom: "cake"
  top: "qrst"
}
input: "uvwx"
input_shape: {
  dim: 1
  dim: 1
  dim: 1
  dim: 3
}
input: "uvwx"
input_shape: {
  dim: 1
  dim: 1
  dim: 1
  dim: 3
}
layer {
  name: "abcd"
  type: "InnerProduct"
  param { lr_mult: 1 decay_mult: 1}
  param { lr_mult: 2 decay_mult: 0}
  inner_product_param {
    num_output: 4
    weight_filler {
      type: "xavier"
    }
    bias_filler {
      type: "constant"
      value: 0
    }
  }
  bottom: "cake"
  top: "abcd"
}
layer {
  name: "abcd"
  type: "InnerProduct"
  param { lr_mult: 1 decay_mult: 1}
  param { lr_mult: 2 decay_mult: 0}
  inner_product_param {
    num_output: 4
    weight_filler {
      type: "xavier"
    }
    bias_filler {
      type: "constant"
      value: 0
    }
  }
  bottom: "cake"
  top: "abcd"
}
layer {
  name: "abcd"
  type: "InnerProduct"
  param { lr_mult: 1 decay_mult: 1}
  param { lr_mult: 2 decay_mult: 0}
  inner_product_param {
    num_output: 4
    weight_filler {
      type: "xavier"
    }
    bias_filler {
      type: "constant"
      value: 0
    }
  }
  bottom: "cake"
  top: "abcd"
}
layer {
  name: "ijkl"
  type: "InnerProduct"
  param { lr_mult: 1 decay_mult: 1}
  param { lr_mult: 2 decay_mult: 0}
  inner_product_param {
    num_output: 2
    weight_filler {
      type: "xavier"
    }
    bias_filler {
      type: "constant"
      value: 0
    }
  }
  bottom: "cake"
  top: "ijkl"
}
layer {
  name: "ijkl"
  type: "InnerProduct"
  param { lr_mult: 1 decay_mult: 1}
  param { lr_mult: 2 decay_mult: 0}
  inner_product_param {
    num_output: 2
    weight_filler {
      type: "xavier"
    }
    bias_filler {
      type: "constant"
      value: 0
    }
  }
  bottom: "cake"
  top: "ijkl"
}
layer {
  name: "qrst"
  type: "InnerProduct"
  param { lr_mult: 1 decay_mult: 1}
  param { lr_mult: 2 decay_mult: 0}
  inner_product_param {
    num_output: 3
    weight_filler {
      type: "xavier"
    }
    bias_filler {
      type: "constant"
      value: 0
    }
  }
  bottom: "cake"
  top: "qrst"
}
input: "uvwx"
input_shape: {
  dim: 1
  dim: 1
  dim: 1
  dim: 3
}
input: "uvwx"
input_shape: {
  dim: 1
  dim: 1
  dim: 1
  dim: 3
}
layer {
  name: "abcd"
  type: "InnerProduct"
  param { lr_mult: 1 decay_mult: 1}
  param { lr_mult: 2 decay_mult: 0}
  inner_product_param {
    num_output: 4
    weight_filler {
      type: "xavier"
    }
    bias_filler {
      type: "constant"
      value: 0
    }
  }
  bottom: "cake"
  top: "abcd"
}
layer {
  name: "abcd"
  type: "InnerProduct"
  param { lr_mult: 1 decay_mult: 1}
  param { lr_mult: 2 decay_mult: 0}
  inner_product_param {
    num_output: 4
    weight_filler {
      type: "xavier"
    }
    bias_filler {
      type: "constant"
      value: 0
    }
  }
  bottom: "cake"
  top: "abcd"
}
layer {
  name: "abcd"
  type: "InnerProduct"
  param { lr_mult: 1 decay_mult: 1}
  param { lr_mult: 2 decay_mult: 0}
  inner_product_param {
    num_output: 4
    weight_filler {
      type: "xavier"
    }
    bias_filler {
      type: "constant"
      value: 0
    }
  }
  bottom: "cake"
  top: "abcd"
}
layer {
  name: "ijkl"
  type: "InnerProduct"
  param { lr_mult: 1 decay_mult: 1}
  param { lr_mult: 2 decay_mult: 0}
  inner_product_param {
    num_output: 2
    weight_filler {
      type: "xavier"
    }
    bias_filler {
      type: "constant"
      value: 0
    }
  }
  bottom: "cake"
  top: "ijkl"
}
layer {
  name: "ijkl"
  type: "InnerProduct"
  param { lr_mult: 1 decay_mult: 1}
  param { lr_mult: 2 decay_mult: 0}
  inner_product_param {
    num_output: 2
    weight_filler {
      type: "xavier"
    }
    bias_filler {
      type: "constant"
      value: 0
    }
  }
  bottom: "cake"
  top: "ijkl"
}
layer {
  name: "qrst"
  type: "InnerProduct"
  param { lr_mult: 1 decay_mult: 1}
  param { lr_mult: 2 decay_mult: 0}
  inner_product_param {
    num_output: 3
    weight_filler {
      type: "xavier"
    }
    bias_filler {
      type: "constant"
      value: 0
    }
  }
  bottom: "cake"
  top: "qrst"
}
input: "uvwx"
input_shape: {
  dim: 1
  dim: 1
  dim: 1
  dim: 3
}
input: "uvwx"
input_shape: {
  dim: 1
  dim: 1
  dim: 1
  dim: 3
}
layer {
  name: "abcd"
  type: "InnerProduct"
  param { lr_mult: 1 decay_mult: 1}
  param { lr_mult: 2 decay_mult: 0}
  inner_product_param {
    num_output: 4
    weight_filler {
      type: "xavier"
    }
    bias_filler {
      type: "constant"
      value: 0
    }
  }
  bottom: "cake"
  top: "abcd"
}
layer {
  name: "abcd"
  type: "InnerProduct"
  param { lr_mult: 1 decay_mult: 1}
  param { lr_mult: 2 decay_mult: 0}
  inner_product_param {
    num_output: 4
    weight_filler {
      type: "xavier"
    }
    bias_filler {
      type: "constant"
      value: 0
    }
  }
  bottom: "cake"
  top: "abcd"
}
layer {
  name: "abcd"
  type: "InnerProduct"
  param { lr_mult: 1 decay_mult: 1}
  param { lr_mult: 2 decay_mult: 0}
  inner_product_param {
    num_output: 4
    weight_filler {
      type: "xavier"
    }
    bias_filler {
      type: "constant"
      value: 0
    }
  }
  bottom: "cake"
  top: "abcd"
}
layer {
  name: "ijkl"
  type: "InnerProduct"
  param { lr_mult: 1 decay_mult: 1}
  param { lr_mult: 2 decay_mult: 0}
  inner_product_param {
    num_output: 2
    weight_filler {
      type: "xavier"
    }
    bias_filler {
      type: "constant"
      value: 0
    }
  }
  bottom: "cake"
  top: "ijkl"
}
layer {
  name: "ijkl"
  type: "InnerProduct"
  param { lr_mult: 1 decay_mult: 1}
  param { lr_mult: 2 decay_mult: 0}
  inner_product_param {
    num_output: 2
    weight_filler {
      type: "xavier"
    }
    bias_filler {
      type: "constant"
      value: 0
    }
  }
  bottom: "cake"
  top: "ijkl"
}
layer {
  name: "qrst"
  type: "InnerProduct"
  param { lr_mult: 1 decay_mult: 1}
  param { lr_mult: 2 decay_mult: 0}
  inner_product_param {
    num_output: 3
    weight_filler {
      type: "xavier"
    }
    bias_filler {
      type: "constant"
      value: 0
    }
  }
  bottom: "cake"
  top: "qrst"
}
input: "uvwx"
input_shape: {
  dim: 1
  dim: 1
  dim: 1
  dim: 3
}
input: "uvwx"
input_shape: {
  dim: 1
  dim: 1
  dim: 1
  dim: 3
}
layer {
  name: "abcd"
  type: "InnerProduct"
  param { lr_mult: 1 decay_mult: 1}
  param { lr_mult: 2 decay_mult: 0}
  inner_product_param {
    num_output: 4
    weight_filler {
      type: "xavier"
    }
    bias_filler {
      type: "constant"
      value: 0
    }
  }
  bottom: "cake"
  top: "abcd"
}
layer {
  name: "abcd"
  type: "InnerProduct"
  param { lr_mult: 1 decay_mult: 1}
  param { lr_mult: 2 decay_mult: 0}
  inner_product_param {
    num_output: 4
    weight_filler {
      type: "xavier"
    }
    bias_filler {
      type: "constant"
      value: 0
    }
  }
  bottom: "cake"
  top: "abcd"
}
layer {
  name: "abcd"
  type: "InnerProduct"
  param { lr_mult: 1 decay_mult: 1}
  param { lr_mult: 2 decay_mult: 0}
  inner_product_param {
    num_output: 4
    weight_filler {
      type: "xavier"
    }
    bias_filler {
      type: "constant"
      value: 0
    }
  }
  bottom: "cake"
  top: "abcd"
}
layer {
  name: "ijkl"
  type: "InnerProduct"
  param { lr_mult: 1 decay_mult: 1}
  param { lr_mult: 2 decay_mult: 0}
  inner_product_param {
    num_output: 2
    weight_filler {
      type: "xavier"
    }
    bias_filler {
      type: "constant"
      value: 0
    }
  }
  bottom: "cake"
  top: "ijkl"
}
layer {
  name: "ijkl"
  type: "InnerProduct"
  param { lr_mult: 1 decay_mult: 1}
  param { lr_mult: 2 decay_mult: 0}
  inner_product_param {
    num_output: 2
    weight_filler {
      type: "xavier"
    }
    bias_filler {
      type: "constant"
      value: 0
    }
  }
  bottom: "cake"
  top: "ijkl"
}
layer {
  name: "qrst"
  type: "InnerProduct"
  param { lr_mult: 1 decay_mult: 1}
  param { lr_mult: 2 decay_mult: 0}
  inner_product_param {
    num_output: 3
    weight_filler {
      type: "xavier"
    }
    bias_filler {
      type: "constant"
      value: 0
    }
  }
  bottom: "cake"
  top: "qrst"
}
input: "uvwx"
input_shape: {
  dim: 1
  dim: 1
  dim: 1
  dim: 3
}
input: "uvwx"
input_shape: {
  dim: 1
  dim: 1
  dim: 1
  dim: 3
}
layer {
  name: "abcd"
  type: "InnerProduct"
  param { lr_mult: 1 decay_mult: 1}
  param { lr_mult: 2 decay_mult: 0}
  inner_product_param {
    num_output: 4
    weight_filler {
      type: "xavier"
    }
    bias_filler {
      type: "constant"
      value: 0
    }
  }
  bottom: "cake"
  top: "abcd"
}
layer {
  name: "abcd"
  type: "InnerProduct"
  param { lr_mult: 1 decay_mult: 1}
  param { lr_mult: 2 decay_mult: 0}
  inner_product_param {
    num_output: 4
    weight_filler {
      type: "xavier"
    }
    bias_filler {
      type: "constant"
      value: 0
    }
  }
  bottom: "cake"
  top: "abcd"
}
layer {
  name: "abcd"
  type: "InnerProduct"
  param { lr_mult: 1 decay_mult: 1}
  param { lr_mult: 2 decay_mult: 0}
  inner_product_param {
    num_output: 4
    weight_filler {
      type: "xavier"
    }
    bias_filler {
      type: "constant"
      value: 0
    }
  }
  bottom: "cake"
  top: "abcd"
}
layer {
  name: "ijkl"
  type: "InnerProduct"
  param { lr_mult: 1 decay_mult: 1}
  param { lr_mult: 2 decay_mult: 0}
  inner_product_param {
    num_output: 2
    weight_filler {
      type: "xavier"
    }
    bias_filler {
      type: "constant"
      value: 0
    }
  }
  bottom: "cake"
  top: "ijkl"
}
layer {
  name: "ijkl"
  type: "InnerProduct"
  param { lr_mult: 1 decay_mult: 1}
  param { lr_mult: 2 decay_mult: 0}
  inner_product_param {
    num_output: 2
    weight_filler {
      type: "xavier"
    }
    bias_filler {
      type: "constant"
      value: 0
    }
  }
  bottom: "cake"
  top: "ijkl"
}
layer {
  name: "qrst"
  type: "InnerProduct"
  param { lr_mult: 1 decay_mult: 1}
  param { lr_mult: 2 decay_mult: 0}
  inner_product_param {
    num_output: 3
    weight_filler {
      type: "xavier"
    }
    bias_filler {
      type: "constant"
      value: 0
    }
  }
  bottom: "cake"
  top: "qrst"
}
input: "uvwx"
input_shape: {
  dim: 1
  dim: 1
  dim: 1
  dim: 3
}
input: "uvwx"
input_shape: {
  dim: 1
  dim: 1
  dim: 1
  dim: 3
}
layer {
  name: "abcd"
  type: "InnerProduct"
  param { lr_mult: 1 decay_mult: 1}
  param { lr_mult: 2 decay_mult: 0}
  inner_product_param {
    num_output: 4
    weight_filler {
      type: "xavier"
    }
    bias_filler {
      type: "constant"
      value: 0
    }
  }
  bottom: "cake"
  top: "abcd"
}
layer {
  name: "abcd"
  type: "InnerProduct"
  param { lr_mult: 1 decay_mult: 1}
  param { lr_mult: 2 decay_mult: 0}
  inner_product_param {
    num_output: 4
    weight_filler {
      type: "xavier"
    }
    bias_filler {
      type: "constant"
      value: 0
    }
  }
  bottom: "cake"
  top: "abcd"
}
layer {
  name: "abcd"
  type: "InnerProduct"
  param { lr_mult: 1 decay_mult: 1}
  param { lr_mult: 2 decay_mult: 0}
  inner_product_param {
    num_output: 4
    weight_filler {
      type: "xavier"
    }
    bias_filler {
      type: "constant"
      value: 0
    }
  }
  bottom: "cake"
  top: "abcd"
}
layer {
  name: "ijkl"
  type: "InnerProduct"
  param { lr_mult: 1 decay_mult: 1}
  param { lr_mult: 2 decay_mult: 0}
  inner_product_param {
    num_output: 2
    weight_filler {
      type: "xavier"
    }
    bias_filler {
      type: "constant"
      value: 0
    }
  }
  bottom: "cake"
  top: "ijkl"
}
layer {
  name: "ijkl"
  type: "InnerProduct"
  param { lr_mult: 1 decay_mult: 1}
  param { lr_mult: 2 decay_mult: 0}
  inner_product_param {
    num_output: 2
    weight_filler {
      type: "xavier"
    }
    bias_filler {
      type: "constant"
      value: 0
    }
  }
  bottom: "cake"
  top: "ijkl"
}
layer {
  name: "qrst"
  type: "InnerProduct"
  param { lr_mult: 1 decay_mult: 1}
  param { lr_mult: 2 decay_mult: 0}
  inner_product_param {
    num_output: 3
    weight_filler {
      type: "xavier"
    }
    bias_filler {
      type: "constant"
      value: 0
    }
  }
  bottom: "cake"
  top: "qrst"
}
input: "uvwx"
input_shape: {
  dim: 1
  dim: 1
  dim: 1
  dim: 3
}
input: "uvwx"
input_shape: {
  dim: 1
  dim: 1
  dim: 1
  dim: 3
}
layer {
  name: "abcd"
  type: "InnerProduct"
  param { lr_mult: 1 decay_mult: 1}
  param { lr_mult: 2 decay_mult: 0}
  inner_product_param {
    num_output: 4
    weight_filler {
      type: "xavier"
    }
    bias_filler {
      type: "constant"
      value: 0
    }
  }
  bottom: "cake"
  top: "abcd"
}
layer {
  name: "abcd"
  type: "InnerProduct"
  param { lr_mult: 1 decay_mult: 1}
  param { lr_mult: 2 decay_mult: 0}
  inner_product_param {
    num_output: 4
    weight_filler {
      type: "xavier"
    }
    bias_filler {
      type: "constant"
      value: 0
    }
  }
  bottom: "cake"
  top: "abcd"
}
layer {
  name: "abcd"
  type: "InnerProduct"
  param { lr_mult: 1 decay_mult: 1}
  param { lr_mult: 2 decay_mult: 0}
  inner_product_param {
    num_output: 4
    weight_filler {
      type: "xavier"
    }
    bias_filler {
      type: "constant"
      value: 0
    }
  }
  bottom: "cake"
  top: "abcd"
}
layer {
  name: "ijkl"
  type: "InnerProduct"
  param { lr_mult: 1 decay_mult: 1}
  param { lr_mult: 2 decay_mult: 0}
  inner_product_param {
    num_output: 2
    weight_filler {
      type: "xavier"
    }
    bias_filler {
      type: "constant"
      value: 0
    }
  }
  bottom: "cake"
  top: "ijkl"
}
layer {
  name: "ijkl"
  type: "InnerProduct"
  param { lr_mult: 1 decay_mult: 1}
  param { lr_mult: 2 decay_mult: 0}
  inner_product_param {
    num_output: 2
    weight_filler {
      type: "xavier"
    }
    bias_filler {
      type: "constant"
      value: 0
    }
  }
  bottom: "cake"
  top: "ijkl"
}
layer {
  name: "qrst"
  type: "InnerProduct"
  param { lr_mult: 1 decay_mult: 1}
  param { lr_mult: 2 decay_mult: 0}
  inner_product_param {
    num_output: 3
    weight_filler {
      type: "xavier"
    }
    bias_filler {
      type: "constant"
      value: 0
    }
  }
  bottom: "cake"
  top: "qrst"
}
input: "uvwx"
input_shape: {
  dim: 1
  dim: 1
  dim: 1
  dim: 3
}
input: "uvwx"
input_shape: {
  dim: 1
  dim: 1
  dim: 1
  dim: 3
}
layer {
  name: "abcd"
  type: "InnerProduct"
  param { lr_mult: 1 decay_mult: 1}
  param { lr_mult: 2 decay_mult: 0}
  inner_product_param {
    num_output: 4
    weight_filler {
      type: "xavier"
    }
    bias_filler {
      type: "constant"
      value: 0
    }
  }
  bottom: "cake"
  top: "abcd"
}
layer {
  name: "abcd"
  type: "InnerProduct"
  param { lr_mult: 1 decay_mult: 1}
  param { lr_mult: 2 decay_mult: 0}
  inner_product_param {
    num_output: 4
    weight_filler {
      type: "xavier"
    }
    bias_filler {
      type: "constant"
      value: 0
    }
  }
  bottom: "cake"
  top: "abcd"
}
layer {
  name: "abcd"
  type: "InnerProduct"
  param { lr_mult: 1 decay_mult: 1}
  param { lr_mult: 2 decay_mult: 0}
  inner_product_param {
    num_output: 4
    weight_filler {
      type: "xavier"
    }
    bias_filler {
      type: "constant"
      value: 0
    }
  }
  bottom: "cake"
  top: "abcd"
}
layer {
  name: "ijkl"
  type: "InnerProduct"
  param { lr_mult: 1 decay_mult: 1}
  param { lr_mult: 2 decay_mult: 0}
  inner_product_param {
    num_output: 2
    weight_filler {
      type: "xavier"
    }
    bias_filler {
      type: "constant"
      value: 0
    }
  }
  bottom: "cake"
  top: "ijkl"
}
layer {
  name: "ijkl"
  type: "InnerProduct"
  param { lr_mult: 1 decay_mult: 1}
  param { lr_mult: 2 decay_mult: 0}
  inner_product_param {
    num_output: 2
    weight_filler {
      type: "xavier"
    }
    bias_filler {
      type: "constant"
      value: 0
    }
  }
  bottom: "cake"
  top: "ijkl"
}
layer {
  name: "qrst"
  type: "InnerProduct"
  param { lr_mult: 1 decay_mult: 1}
  param { lr_mult: 2 decay_mult: 0}
  inner_product_param {
    num_output: 3
    weight_filler {
      type: "xavier"
    }
    bias_filler {
      type: "constant"
      value: 0
    }
  }
  bottom: "cake"
  top: "qrst"
}
input: "uvwx"
input_shape: {
  dim: 1
  dim: 1
  dim: 1
  dim: 3
}
input: "uvwx"
input_shape: {
  dim: 1
  dim: 1
  dim: 1
  dim: 3
}
layer {
  name: "abcd"
  type: "InnerProduct"
  param { lr_mult: 1 decay_mult: 1}
  param { lr_mult: 2 decay_mult: 0}
  inner_product_param {
    num_output: 4
    weight_filler {
      type: "xavier"
    }
    bias_filler {
      type: "constant"
      value: 0
    }
  }
  bottom: "cake"
  top: "abcd"
}
layer {
  name: "abcd"
  type: "InnerProduct"
  param { lr_mult: 1 decay_mult: 1}
  param { lr_mult: 2 decay_mult: 0}
  inner_product_param {
    num_output: 4
    weight_filler {
      type: "xavier"
    }
    bias_filler {
      type: "constant"
      value: 0
    }
  }
  bottom: "cake"
  top: "abcd"
}
layer {
  name: "abcd"
  type: "InnerProduct"
  param { lr_mult: 1 decay_mult: 1}
  param { lr_mult: 2 decay_mult: 0}
  inner_product_param {
    num_output: 4
    weight_filler {
      type: "xavier"
    }
    bias_filler {
      type: "constant"
      value: 0
    }
  }
  bottom: "cake"
  top: "abcd"
}
layer {
  name: "ijkl"
  type: "InnerProduct"
  param { lr_mult: 1 decay_mult: 1}
  param { lr_mult: 2 decay_mult: 0}
  inner_product_param {
    num_output: 2
    weight_filler {
      type: "xavier"
    }
    bias_filler {
      type: "constant"
      value: 0
    }
  }
  bottom: "cake"
  top: "ijkl"
}
layer {
  name: "ijkl"
  type: "InnerProduct"
  param { lr_mult: 1 decay_mult: 1}
  param { lr_mult: 2 decay_mult: 0}
  inner_product_param {
    num_output: 2
    weight_filler {
      type: "xavier"
    }
    bias_filler {
      type: "constant"
      value: 0
    }
  }
  bottom: "cake"
  top: "ijkl"
}
layer {
  name: "qrst"
  type: "InnerProduct"
  param { lr_mult: 1 decay_mult: 1}
  param { lr_mult: 2 decay_mult: 0}
  inner_product_param {
    num_output: 3
    weight_filler {
      type: "xavier"
    }
    bias_filler {
      type: "constant"
      value: 0
    }
  }
  bottom: "cake"
  top: "qrst"
}
input: "uvwx"
input_shape: {
  dim: 1
  dim: 1
  dim: 1
  dim: 3
}
input: "uvwx"
input_shape: {
  dim: 1
  dim: 1
  dim: 1
  dim: 3
}
layer {
  name: "abcd"
  type: "InnerProduct"
  param { lr_mult: 1 decay_mult: 1}
  param { lr_mult: 2 decay_mult: 0}
  inner_product_param {
    num_output: 4
    weight_filler {
      type: "xavier"
    }
    bias_filler {
      type: "constant"
      value: 0
    }
  }
  bottom: "cake"
  top: "abcd"
}
layer {
  name: "abcd"
  type: "InnerProduct"
  param { lr_mult: 1 decay_mult: 1}
  param { lr_mult: 2 decay_mult: 0}
  inner_product_param {
    num_output: 4
    weight_filler {
      type: "xavier"
    }
    bias_filler {
      type: "constant"
      value: 0
    }
  }
  bottom: "cake"
  top: "abcd"
}
layer {
  name: "abcd"
  type: "InnerProduct"
  param { lr_mult: 1 decay_mult: 1}
  param { lr_mult: 2 decay_mult: 0}
  inner_product_param {
    num_output: 4
    weight_filler {
      type: "xavier"
    }
    bias_filler {
      type: "constant"
      value: 0
    }
  }
  bottom: "cake"
  top: "abcd"
}
layer {
  name: "ijkl"
  type: "InnerProduct"
  param { lr_mult: 1 decay_mult: 1}
  param { lr_mult: 2 decay_mult: 0}
  inner_product_param {
    num_output: 2
    weight_filler {
      type: "xavier"
    }
    bias_filler {
      type: "constant"
      value: 0
    }
  }
  bottom: "cake"
  top: "ijkl"
}
layer {
  name: "ijkl"
  type: "InnerProduct"
  param { lr_mult: 1 decay_mult: 1}
  param { lr_mult: 2 decay_mult: 0}
  inner_product_param {
    num_output: 2
    weight_filler {
      type: "xavier"
    }
    bias_filler {
      type: "constant"
      value: 0
    }
  }
  bottom: "cake"
  top: "ijkl"
}
layer {
  name: "qrst"
  type: "InnerProduct"
  param { lr_mult: 1 decay_mult: 1}
  param { lr_mult: 2 decay_mult: 0}
  inner_product_param {
    num_output: 3
    weight_filler {
      type: "xavier"
    }
    bias_filler {
      type: "constant"
      value: 0
    }
  }
  bottom: "cake"
  top: "qrst"
}
input: "uvwx"
input_shape: {
  dim: 1
  dim: 1
  dim: 1
  dim: 3
}
input: "uvwx"
input_shape: {
  dim: 1
  dim: 1
  dim: 1
  dim: 3
}
layer {
  name: "abcd"
  type: "InnerProduct"
  param { lr_mult: 1 decay_mult: 1}
  param { lr_mult: 2 decay_mult: 0}
  inner_product_param {
    num_output: 4
    weight_filler {
      type: "xavier"
    }
    bias_filler {
      type: "constant"
      value: 0
    }
  }
  bottom: "cake"
  top: "abcd"
}
layer {
  name: "abcd"
  type: "InnerProduct"
  param { lr_mult: 1 decay_mult: 1}
  param { lr_mult: 2 decay_mult: 0}
  inner_product_param {
    num_output: 4
    weight_filler {
      type: "xavier"
    }
    bias_filler {
      type: "constant"
      value: 0
    }
  }
  bottom: "cake"
  top: "abcd"
}
layer {
  name: "abcd"
  type: "InnerProduct"
  param { lr_mult: 1 decay_mult: 1}
  param { lr_mult: 2 decay_mult: 0}
  inner_product_param {
    num_output: 4
    weight_filler {
      type: "xavier"
    }
    bias_filler {
      type: "constant"
      value: 0
    }
  }
  bottom: "cake"
  top: "abcd"
}
layer {
  name: "ijkl"
  type: "InnerProduct"
  param { lr_mult: 1 decay_mult: 1}
  param { lr_mult: 2 decay_mult: 0}
  inner_product_param {
    num_output: 2
    weight_filler {
      type: "xavier"
    }
    bias_filler {
      type: "constant"
      value: 0
    }
  }
  bottom: "cake"
  top: "ijkl"
}
layer {
  name: "ijkl"
  type: "InnerProduct"
  param { lr_mult: 1 decay_mult: 1}
  param { lr_mult: 2 decay_mult: 0}
  inner_product_param {
    num_output: 2
    weight_filler {
      type: "xavier"
    }
    bias_filler {
      type: "constant"
      value: 0
    }
  }
  bottom: "cake"
  top: "ijkl"
}
layer {
  name: "qrst"
  type: "InnerProduct"
  param { lr_mult: 1 decay_mult: 1}
  param { lr_mult: 2 decay_mult: 0}
  inner_product_param {
    num_output: 3
    weight_filler {
      type: "xavier"
    }
    bias_filler {
      type: "constant"
      value: 0
    }
  }
  bottom: "cake"
  top: "qrst"
}
input: "uvwx"
input_shape: {
  dim: 1
  dim: 1
  dim: 1
  dim: 3
}
input: "uvwx"
input_shape: {
  dim: 1
  dim: 1
  dim: 1
  dim: 3
}
layer {
  name: "abcd"
  type: "InnerProduct"
  param { lr_mult: 1 decay_mult: 1}
  param { lr_mult: 2 decay_mult: 0}
  inner_product_param {
    num_output: 4
    weight_filler {
      type: "xavier"
    }
    bias_filler {
      type: "constant"
      value: 0
    }
  }
  bottom: "cake"
  top: "abcd"
}
layer {
  name: "abcd"
  type: "InnerProduct"
  param { lr_mult: 1 decay_mult: 1}
  param { lr_mult: 2 decay_mult: 0}
  inner_product_param {
    num_output: 4
    weight_filler {
      type: "xavier"
    }
    bias_filler {
      type: "constant"
      value: 0
    }
  }
  bottom: "cake"
  top: "abcd"
}
layer {
  name: "abcd"
  type: "InnerProduct"
  param { lr_mult: 1 decay_mult: 1}
  param { lr_mult: 2 decay_mult: 0}
  inner_product_param {
    num_output: 4
    weight_filler {
      type: "xavier"
    }
    bias_filler {
      type: "constant"
      value: 0
    }
  }
  bottom: "cake"
  top: "abcd"
}
layer {
  name: "ijkl"
  type: "InnerProduct"
  param { lr_mult: 1 decay_mult: 1}
  param { lr_mult: 2 decay_mult: 0}
  inner_product_param {
    num_output: 2
    weight_filler {
      type: "xavier"
    }
    bias_filler {
      type: "constant"
      value: 0
    }
  }
  bottom: "cake"
  top: "ijkl"
}
layer {
  name: "ijkl"
  type: "InnerProduct"
  param { lr_mult: 1 decay_mult: 1}
  param { lr_mult: 2 decay_mult: 0}
  inner_product_param {
    num_output: 2
    weight_filler {
      type: "xavier"
    }
    bias_filler {
      type: "constant"
      value: 0
    }
  }
  bottom: "cake"
  top: "ijkl"
}
layer {
  name: "qrst"
  type: "InnerProduct"
  param { lr_mult: 1 decay_mult: 1}
  param { lr_mult: 2 decay_mult: 0}
  inner_product_param {
    num_output: 3
    weight_filler {
      type: "xavier"
    }
    bias_filler {
      type: "constant"
      value: 0
    }
  }
  bottom: "cake"
  top: "qrst"
}
input: "uvwx"
input_shape: {
  dim: 1
  dim: 1
  dim: 1
  dim: 3
}
input: "uvwx"
input_shape: {
  dim: 1
  dim: 1
  dim: 1
  dim: 3
}
layer {
  name: "abcd"
  type: "InnerProduct"
  param { lr_mult: 1 decay_mult: 1}
  param { lr_mult: 2 decay_mult: 0}
  inner_product_param {
    num_output: 4
    weight_filler {
      type: "xavier"
    }
    bias_filler {
      type: "constant"
      value: 0
    }
  }
  bottom: "cake"
  top: "abcd"
}
layer {
  name: "abcd"
  type: "InnerProduct"
  param { lr_mult: 1 decay_mult: 1}
  param { lr_mult: 2 decay_mult: 0}
  inner_product_param {
    num_output: 4
    weight_filler {
      type: "xavier"
    }
    bias_filler {
      type: "constant"
      value: 0
    }
  }
  bottom: "cake"
  top: "abcd"
}
layer {
  name: "abcd"
  type: "InnerProduct"
  param { lr_mult: 1 decay_mult: 1}
  param { lr_mult: 2 decay_mult: 0}
  inner_product_param {
    num_output: 4
    weight_filler {
      type: "xavier"
    }
    bias_filler {
      type: "constant"
      value: 0
    }
  }
  bottom: "cake"
  top: "abcd"
}
layer {
  name: "ijkl"
  type: "InnerProduct"
  param { lr_mult: 1 decay_mult: 1}
  param { lr_mult: 2 decay_mult: 0}
  inner_product_param {
    num_output: 2
    weight_filler {
      type: "xavier"
    }
    bias_filler {
      type: "constant"
      value: 0
    }
  }
  bottom: "cake"
  top: "ijkl"
}
layer {
  name: "ijkl"
  type: "InnerProduct"
  param { lr_mult: 1 decay_mult: 1}
  param { lr_mult: 2 decay_mult: 0}
  inner_product_param {
    num_output: 2
    weight_filler {
      type: "xavier"
    }
    bias_filler {
      type: "constant"
      value: 0
    }
  }
  bottom: "cake"
  top: "ijkl"
}
layer {
  name: "qrst"
  type: "InnerProduct"
  param { lr_mult: 1 decay_mult: 1}
  param { lr_mult: 2 decay_mult: 0}
  inner_product_param {
    num_output: 3
    weight_filler {
      type: "xavier"
    }
    bias_filler {
      type: "constant"
      value: 0
    }
  }
  bottom: "cake"
  top: "qrst"
}
input: "uvwx"
input_shape: {
  dim: 1
  dim: 1
  dim: 1
  dim: 3
}
input: "uvwx"
input_shape: {
  dim: 1
  dim: 1
  dim: 1
  dim: 3
}
layer {
  name: "abcd"
  type: "InnerProduct"
  param { lr_mult: 1 decay_mult: 1}
  param { lr_mult: 2 decay_mult: 0}
  inner_product_param {
    num_output: 4
    weight_filler {
      type: "xavier"
    }
    bias_filler {
      type: "constant"
      value: 0
    }
  }
  bottom: "cake"
  top: "abcd"
}
layer {
  name: "abcd"
  type: "InnerProduct"
  param { lr_mult: 1 decay_mult: 1}
  param { lr_mult: 2 decay_mult: 0}
  inner_product_param {
    num_output: 4
    weight_filler {
      type: "xavier"
    }
    bias_filler {
      type: "constant"
      value: 0
    }
  }
  bottom: "cake"
  top: "abcd"
}
layer {
  name: "abcd"
  type: "InnerProduct"
  param { lr_mult: 1 decay_mult: 1}
  param { lr_mult: 2 decay_mult: 0}
  inner_product_param {
    num_output: 4
    weight_filler {
      type: "xavier"
    }
    bias_filler {
      type: "constant"
      value: 0
    }
  }
  bottom: "cake"
  top: "abcd"
}
layer {
  name: "ijkl"
  type: "InnerProduct"
  param { lr_mult: 1 decay_mult: 1}
  param { lr_mult: 2 decay_mult: 0}
  inner_product_param {
    num_output: 2
    weight_filler {
      type: "xavier"
    }
    bias_filler {
      type: "constant"
      value: 0
    }
  }
  bottom: "cake"
  top: "ijkl"
}
layer {
  name: "ijkl"
  type: "InnerProduct"
  param { lr_mult: 1 decay_mult: 1}
  param { lr_mult: 2 decay_mult: 0}
  inner_product_param {
    num_output: 2
    weight_filler {
      type: "xavier"
    }
    bias_filler {
      type: "constant"
      value: 0
    }
  }
  bottom: "cake"
  top: "ijkl"
}
layer {
  name: "qrst"
  type: "InnerProduct"
  param { lr_mult: 1 decay_mult: 1}
  param { lr_mult: 2 decay_mult: 0}
  inner_product_param {
    num_output: 3
    weight_filler {
      type: "xavier"
    }
    bias_filler {
      type: "constant"
      value: 0
    }
  }
  bottom: "cake"
  top: "qrst"
}
input: "uvwx"
input_shape: {
  dim: 1
  dim: 1
  dim: 1
  dim: 3
}
input: "uvwx"
input_shape: {
  dim: 1
  dim: 1
  dim: 1
  dim: 3
}
layer {
  name: "abcd"
  type: "InnerProduct"
  param { lr_mult: 1 decay_mult: 1}
  param { lr_mult: 2 decay_mult: 0}
  inner_product_param {
    num_output: 4
    weight_filler {
      type: "xavier"
    }
    bias_filler {
      type: "constant"
      value: 0
    }
  }
  bottom: "cake"
  top: "abcd"
}
layer {
  name: "abcd"
  type: "InnerProduct"
  param { lr_mult: 1 decay_mult: 1}
  param { lr_mult: 2 decay_mult: 0}
  inner_product_param {
    num_output: 4
    weight_filler {
      type: "xavier"
    }
    bias_filler {
      type: "constant"
      value: 0
    }
  }
  bottom: "cake"
  top: "abcd"
}
layer {
  name: "abcd"
  type: "InnerProduct"
  param { lr_mult: 1 decay_mult: 1}
  param { lr_mult: 2 decay_mult: 0}
  inner_product_param {
    num_output: 4
    weight_filler {
      type: "xavier"
    }
    bias_filler {
      type: "constant"
      value: 0
    }
  }
  bottom: "cake"
  top: "abcd"
}
layer {
  name: "ijkl"
  type: "InnerProduct"
  param { lr_mult: 1 decay_mult: 1}
  param { lr_mult: 2 decay_mult: 0}
  inner_product_param {
    num_output: 2
    weight_filler {
      type: "xavier"
    }
    bias_filler {
      type: "constant"
      value: 0
    }
  }
  bottom: "cake"
  top: "ijkl"
}
layer {
  name: "ijkl"
  type: "InnerProduct"
  param { lr_mult: 1 decay_mult: 1}
  param { lr_mult: 2 decay_mult: 0}
  inner_product_param {
    num_output: 2
    weight_filler {
      type: "xavier"
    }
    bias_filler {
      type: "constant"
      value: 0
    }
  }
  bottom: "cake"
  top: "ijkl"
}
layer {
  name: "qrst"
  type: "InnerProduct"
  param { lr_mult: 1 decay_mult: 1}
  param { lr_mult: 2 decay_mult: 0}
  inner_product_param {
    num_output: 3
    weight_filler {
      type: "xavier"
    }
    bias_filler {
      type: "constant"
      value: 0
    }
  }
  bottom: "cake"
  top: "qrst"
}
input: "uvwx"
input_shape: {
  dim: 1
  dim: 1
  dim: 1
  dim: 3
}
input: "uvwx"
input_shape: {
  dim: 1
  dim: 1
  dim: 1
  dim: 3
}
layer {
  name: "abcd"
  type: "InnerProduct"
  param { lr_mult: 1 decay_mult: 1}
  param { lr_mult: 2 decay_mult: 0}
  inner_product_param {
    num_output: 4
    weight_filler {
      type: "xavier"
    }
    bias_filler {
      type: "constant"
      value: 0
    }
  }
  bottom: "cake"
  top: "abcd"
}
layer {
  name: "abcd"
  type: "InnerProduct"
  param { lr_mult: 1 decay_mult: 1}
  param { lr_mult: 2 decay_mult: 0}
  inner_product_param {
    num_output: 4
    weight_filler {
      type: "xavier"
    }
    bias_filler {
      type: "constant"
      value: 0
    }
  }
  bottom: "cake"
  top: "abcd"
}
layer {
  name: "abcd"
  type: "InnerProduct"
  param { lr_mult: 1 decay_mult: 1}
  param { lr_mult: 2 decay_mult: 0}
  inner_product_param {
    num_output: 4
    weight_filler {
      type: "xavier"
    }
    bias_filler {
      type: "constant"
      value: 0
    }
  }
  bottom: "cake"
  top: "abcd"
}
layer {
  name: "ijkl"
  type: "InnerProduct"
  param { lr_mult: 1 decay_mult: 1}
  param { lr_mult: 2 decay_mult: 0}
  inner_product_param {
    num_output: 2
    weight_filler {
      type: "xavier"
    }
    bias_filler {
      type: "constant"
      value: 0
    }
  }
  bottom: "cake"
  top: "ijkl"
}
layer {
  name: "ijkl"
  type: "InnerProduct"
  param { lr_mult: 1 decay_mult: 1}
  param { lr_mult: 2 decay_mult: 0}
  inner_product_param {
    num_output: 2
    weight_filler {
      type: "xavier"
    }
    bias_filler {
      type: "constant"
      value: 0
    }
  }
  bottom: "cake"
  top: "ijkl"
}
layer {
  name: "qrst"
  type: "InnerProduct"
  param { lr_mult: 1 decay_mult: 1}
  param { lr_mult: 2 decay_mult: 0}
  inner_product_param {
    num_output: 3
    weight_filler {
      type: "xavier"
    }
    bias_filler {
      type: "constant"
      value: 0
    }
  }
  bottom: "cake"
  top: "qrst"
}
input: "uvwx"
input_shape: {
  dim: 1
  dim: 1
  dim: 1
  dim: 3
}
input: "uvwx"
input_shape: {
  dim: 1
  dim: 1
  dim: 1
  dim: 3
}
layer {
  name: "abcd"
  type: "InnerProduct"
  param { lr_mult: 1 decay_mult: 1}
  param { lr_mult: 2 decay_mult: 0}
  inner_product_param {
    num_output: 4
    weight_filler {
      type: "xavier"
    }
    bias_filler {
      type: "constant"
      value: 0
    }
  }
  bottom: "cake"
  top: "abcd"
}
layer {
  name: "abcd"
  type: "InnerProduct"
  param { lr_mult: 1 decay_mult: 1}
  param { lr_mult: 2 decay_mult: 0}
  inner_product_param {
    num_output: 4
    weight_filler {
      type: "xavier"
    }
    bias_filler {
      type: "constant"
      value: 0
    }
  }
  bottom: "cake"
  top: "abcd"
}
layer {
  name: "abcd"
  type: "InnerProduct"
  param { lr_mult: 1 decay_mult: 1}
  param { lr_mult: 2 decay_mult: 0}
  inner_product_param {
    num_output: 4
    weight_filler {
      type: "xavier"
    }
    bias_filler {
      type: "constant"
      value: 0
    }
  }
  bottom: "cake"
  top: "abcd"
}
layer {
  name: "ijkl"
  type: "InnerProduct"
  param { lr_mult: 1 decay_mult: 1}
  param { lr_mult: 2 decay_mult: 0}
  inner_product_param {
    num_output: 2
    weight_filler {
      type: "xavier"
    }
    bias_filler {
      type: "constant"
      value: 0
    }
  }
  bottom: "cake"
  top: "ijkl"
}
layer {
  name: "ijkl"
  type: "InnerProduct"
  param { lr_mult: 1 decay_mult: 1}
  param { lr_mult: 2 decay_mult: 0}
  inner_product_param {
    num_output: 2
    weight_filler {
      type: "xavier"
    }
    bias_filler {
      type: "constant"
      value: 0
    }
  }
  bottom: "cake"
  top: "ijkl"
}
layer {
  name: "qrst"
  type: "InnerProduct"
  param { lr_mult: 1 decay_mult: 1}
  param { lr_mult: 2 decay_mult: 0}
  inner_product_param {
    num_output: 3
    weight_filler {
      type: "xavier"
    }
    bias_filler {
      type: "constant"
      value: 0
    }
  }
  bottom: "cake"
  top: "qrst"
}
input: "uvwx"
input_shape: {
  dim: 1
  dim: 1
  dim: 1
  dim: 3
}
input: "uvwx"
input_shape: {
  dim: 1
  dim: 1
  dim: 1
  dim: 3
}
layer {
  name: "abcd"
  type: "InnerProduct"
  param { lr_mult: 1 decay_mult: 1}
  param { lr_mult: 2 decay_mult: 0}
  inner_product_param {
    num_output: 4
    weight_filler {
      type: "xavier"
    }
    bias_filler {
      type: "constant"
      value: 0
    }
  }
  bottom: "cake"
  top: "abcd"
}
layer {
  name: "abcd"
  type: "InnerProduct"
  param { lr_mult: 1 decay_mult: 1}
  param { lr_mult: 2 decay_mult: 0}
  inner_product_param {
    num_output: 4
    weight_filler {
      type: "xavier"
    }
    bias_filler {
      type: "constant"
      value: 0
    }
  }
  bottom: "cake"
  top: "abcd"
}
layer {
  name: "abcd"
  type: "InnerProduct"
  param { lr_mult: 1 decay_mult: 1}
  param { lr_mult: 2 decay_mult: 0}
  inner_product_param {
    num_output: 4
    weight_filler {
      type: "xavier"
    }
    bias_filler {
      type: "constant"
      value: 0
    }
  }
  bottom: "cake"
  top: "abcd"
}
layer {
  name: "ijkl"
  type: "InnerProduct"
  param { lr_mult: 1 decay_mult: 1}
  param { lr_mult: 2 decay_mult: 0}
  inner_product_param {
    num_output: 2
    weight_filler {
      type: "xavier"
    }
    bias_filler {
      type: "constant"
      value: 0
    }
  }
  bottom: "cake"
  top: "ijkl"
}
layer {
  name: "ijkl"
  type: "InnerProduct"
  param { lr_mult: 1 decay_mult: 1}
  param { lr_mult: 2 decay_mult: 0}
  inner_product_param {
    num_output: 2
    weight_filler {
      type: "xavier"
    }
    bias_filler {
      type: "constant"
      value: 0
    }
  }
  bottom: "cake"
  top: "ijkl"
}
layer {
  name: "qrst"
  type: "InnerProduct"
  param { lr_mult: 1 decay_mult: 1}
  param { lr_mult: 2 decay_mult: 0}
  inner_product_param {
    num_output: 3
    weight_filler {
      type: "xavier"
    }
    bias_filler {
      type: "constant"
      value: 0
    }
  }
  bottom: "cake"
  top: "qrst"
}
input: "uvwx"
input_shape: {
  dim: 1
  dim: 1
  dim: 1
  dim: 3
}
input: "uvwx"
input_shape: {
  dim: 1
  dim: 1
  dim: 1
  dim: 3
}
layer {
  name: "abcd"
  type: "InnerProduct"
  param { lr_mult: 1 decay_mult: 1}
  param { lr_mult: 2 decay_mult: 0}
  inner_product_param {
    num_output: 4
    weight_filler {
      type: "xavier"
    }
    bias_filler {
      type: "constant"
      value: 0
    }
  }
  bottom: "cake"
  top: "abcd"
}
layer {
  name: "abcd"
  type: "InnerProduct"
  param { lr_mult: 1 decay_mult: 1}
  param { lr_mult: 2 decay_mult: 0}
  inner_product_param {
    num_output: 4
    weight_filler {
      type: "xavier"
    }
    bias_filler {
      type: "constant"
      value: 0
    }
  }
  bottom: "cake"
  top: "abcd"
}
layer {
  name: "abcd"
  type: "InnerProduct"
  param { lr_mult: 1 decay_mult: 1}
  param { lr_mult: 2 decay_mult: 0}
  inner_product_param {
    num_output: 4
    weight_filler {
      type: "xavier"
    }
    bias_filler {
      type: "constant"
      value: 0
    }
  }
  bottom: "cake"
  top: "abcd"
}
layer {
  name: "ijkl"
  type: "InnerProduct"
  param { lr_mult: 1 decay_mult: 1}
  param { lr_mult: 2 decay_mult: 0}
  inner_product_param {
    num_output: 2
    weight_filler {
      type: "xavier"
    }
    bias_filler {
      type: "constant"
      value: 0
    }
  }
  bottom: "cake"
  top: "ijkl"
}
layer {
  name: "ijkl"
  type: "InnerProduct"
  param { lr_mult: 1 decay_mult: 1}
  param { lr_mult: 2 decay_mult: 0}
  inner_product_param {
    num_output: 2
    weight_filler {
      type: "xavier"
    }
    bias_filler {
      type: "constant"
      value: 0
    }
  }
  bottom: "cake"
  top: "ijkl"
}
layer {
  name: "qrst"
  type: "InnerProduct"
  param { lr_mult: 1 decay_mult: 1}
  param { lr_mult: 2 decay_mult: 0}
  inner_product_param {
    num_output: 3
    weight_filler {
      type: "xavier"
    }
    bias_filler {
      type: "constant"
      value: 0
    }
  }
  bottom: "cake"
  top: "qrst"
}
input: "uvwx"
input_shape: {
  dim: 1
  dim: 1
  dim: 1
  dim: 3
}
input: "uvwx"
input_shape: {
  dim: 1
  dim: 1
  dim: 1
  dim: 3
}
layer {
  name: "abcd"
  type: "InnerProduct"
  param { lr_mult: 1 decay_mult: 1}
  param { lr_mult: 2 decay_mult: 0}
  inner_product_param {
    num_output: 4
    weight_filler {
      type: "xavier"
    }
    bias_filler {
      type: "constant"
      value: 0
    }
  }
  bottom: "cake"
  top: "abcd"
}
layer {
  name: "abcd"
  type: "InnerProduct"
  param { lr_mult: 1 decay_mult: 1}
  param { lr_mult: 2 decay_mult: 0}
  inner_product_param {
    num_output: 4
    weight_filler {
      type: "xavier"
    }
    bias_filler {
      type: "constant"
      value: 0
    }
  }
  bottom: "cake"
  top: "abcd"
}
layer {
  name: "abcd"
  type: "InnerProduct"
  param { lr_mult: 1 decay_mult: 1}
  param { lr_mult: 2 decay_mult: 0}
  inner_product_param {
    num_output: 4
    weight_filler {
      type: "xavier"
    }
    bias_filler {
      type: "constant"
      value: 0
    }
  }
  bottom: "cake"
  top: "abcd"
}
layer {
  name: "ijkl"
  type: "InnerProduct"
  param { lr_mult: 1 decay_mult: 1}
  param { lr_mult: 2 decay_mult: 0}
  inner_product_param {
    num_output: 2
    weight_filler {
      type: "xavier"
    }
    bias_filler {
      type: "constant"
      value: 0
    }
  }
  bottom: "cake"
  top: "ijkl"
}
layer {
  name: "ijkl"
  type: "InnerProduct"
  param { lr_mult: 1 decay_mult: 1}
  param { lr_mult: 2 decay_mult: 0}
  inner_product_param {
    num_output: 2
    weight_filler {
      type: "xavier"
    }
    bias_filler {
      type: "constant"
      value: 0
    }
  }
  bottom: "cake"
  top: "ijkl"
}
layer {
  name: "qrst"
  type: "InnerProduct"
  param { lr_mult: 1 decay_mult: 1}
  param { lr_mult: 2 decay_mult: 0}
  inner_product_param {
    num_output: 3
    weight_filler {
      type: "xavier"
    }
    bias_filler {
      type: "constant"
      value: 0
    }
  }
  bottom: "cake"
  top: "qrst"
}
input: "uvwx"
input_shape: {
  dim: 1
  dim: 1
  dim: 1
  dim: 3
}
input: "uvwx"
input_shape: {
  dim: 1
  dim: 1
  dim: 1
  dim: 3
}
layer {
  name: "abcd"
  type: "InnerProduct"
  param { lr_mult: 1 decay_mult: 1}
  param { lr_mult: 2 decay_mult: 0}
  inner_product_param {
    num_output: 4
    weight_filler {
      type: "xavier"
    }
    bias_filler {
      type: "constant"
      value: 0
    }
  }
  bottom: "cake"
  top: "abcd"
}
layer {
  name: "abcd"
  type: "InnerProduct"
  param { lr_mult: 1 decay_mult: 1}
  param { lr_mult: 2 decay_mult: 0}
  inner_product_param {
    num_output: 4
    weight_filler {
      type: "xavier"
    }
    bias_filler {
      type: "constant"
      value: 0
    }
  }
  bottom: "cake"
  top: "abcd"
}
layer {
  name: "abcd"
  type: "InnerProduct"
  param { lr_mult: 1 decay_mult: 1}
  param { lr_mult: 2 decay_mult: 0}
  inner_product_param {
    num_output: 4
    weight_filler {
      type: "xavier"
    }
    bias_filler {
      type: "constant"
      value: 0
    }
  }
  bottom: "cake"
  top: "abcd"
}
layer {
  name: "ijkl"
  type: "InnerProduct"
  param { lr_mult: 1 decay_mult: 1}
  param { lr_mult: 2 decay_mult: 0}
  inner_product_param {
    num_output: 2
    weight_filler {
      type: "xavier"
    }
    bias_filler {
      type: "constant"
      value: 0
    }
  }
  bottom: "cake"
  top: "ijkl"
}
layer {
  name: "ijkl"
  type: "InnerProduct"
  param { lr_mult: 1 decay_mult: 1}
  param { lr_mult: 2 decay_mult: 0}
  inner_product_param {
    num_output: 2
    weight_filler {
      type: "xavier"
    }
    bias_filler {
      type: "constant"
      value: 0
    }
  }
  bottom: "cake"
  top: "ijkl"
}
layer {
  name: "qrst"
  type: "InnerProduct"
  param { lr_mult: 1 decay_mult: 1}
  param { lr_mult: 2 decay_mult: 0}
  inner_product_param {
    num_output: 3
    weight_filler {
      type: "xavier"
    }
    bias_filler {
      type: "constant"
      value: 0
    }
  }
  bottom: "cake"
  top: "qrst"
}
input: "uvwx"
input_shape: {
  dim: 1
  dim: 1
  dim: 1
  dim: 3
}
input: "uvwx"
input_shape: {
  dim: 1
  dim: 1
  dim: 1
  dim: 3
}
layer {
  name: "abcd"
  type: "InnerProduct"
  param { lr_mult: 1 decay_mult: 1}
  param { lr_mult: 2 decay_mult: 0}
  inner_product_param {
    num_output: 4
    weight_filler {
      type: "xavier"
    }
    bias_filler {
      type: "constant"
      value: 0
    }
  }
  bottom: "cake"
  top: "abcd"
}
layer {
  name: "abcd"
  type: "InnerProduct"
  param { lr_mult: 1 decay_mult: 1}
  param { lr_mult: 2 decay_mult: 0}
  inner_product_param {
    num_output: 4
    weight_filler {
      type: "xavier"
    }
    bias_filler {
      type: "constant"
      value: 0
    }
  }
  bottom: "cake"
  top: "abcd"
}
layer {
  name: "abcd"
  type: "InnerProduct"
  param { lr_mult: 1 decay_mult: 1}
  param { lr_mult: 2 decay_mult: 0}
  inner_product_param {
    num_output: 4
    weight_filler {
      type: "xavier"
    }
    bias_filler {
      type: "constant"
      value: 0
    }
  }
  bottom: "cake"
  top: "abcd"
}
layer {
  name: "ijkl"
  type: "InnerProduct"
  param { lr_mult: 1 decay_mult: 1}
  param { lr_mult: 2 decay_mult: 0}
  inner_product_param {
    num_output: 2
    weight_filler {
      type: "xavier"
    }
    bias_filler {
      type: "constant"
      value: 0
    }
  }
  bottom: "cake"
  top: "ijkl"
}
layer {
  name: "ijkl"
  type: "InnerProduct"
  param { lr_mult: 1 decay_mult: 1}
  param { lr_mult: 2 decay_mult: 0}
  inner_product_param {
    num_output: 2
    weight_filler {
      type: "xavier"
    }
    bias_filler {
      type: "constant"
      value: 0
    }
  }
  bottom: "cake"
  top: "ijkl"
}
layer {
  name: "qrst"
  type: "InnerProduct"
  param { lr_mult: 1 decay_mult: 1}
  param { lr_mult: 2 decay_mult: 0}
  inner_product_param {
    num_output: 3
    weight_filler {
      type: "xavier"
    }
    bias_filler {
      type: "constant"
      value: 0
    }
  }
  bottom: "cake"
  top: "qrst"
}
input: "uvwx"
input_shape: {
  dim: 1
  dim: 1
  dim: 1
  dim: 3
}
input: "uvwx"
input_shape: {
  dim: 1
  dim: 1
  dim: 1
  dim: 3
}
layer {
  name: "abcd"
  type: "InnerProduct"
  param { lr_mult: 1 decay_mult: 1}
  param { lr_mult: 2 decay_mult: 0}
  inner_product_param {
    num_output: 4
    weight_filler {
      type: "xavier"
    }
    bias_filler {
      type: "constant"
      value: 0
    }
  }
  bottom: "cake"
  top: "abcd"
}
layer {
  name: "abcd"
  type: "InnerProduct"
  param { lr_mult: 1 decay_mult: 1}
  param { lr_mult: 2 decay_mult: 0}
  inner_product_param {
    num_output: 4
    weight_filler {
      type: "xavier"
    }
    bias_filler {
      type: "constant"
      value: 0
    }
  }
  bottom: "cake"
  top: "abcd"
}
layer {
  name: "abcd"
  type: "InnerProduct"
  param { lr_mult: 1 decay_mult: 1}
  param { lr_mult: 2 decay_mult: 0}
  inner_product_param {
    num_output: 4
    weight_filler {
      type: "xavier"
    }
    bias_filler {
      type: "constant"
      value: 0
    }
  }
  bottom: "cake"
  top: "abcd"
}
layer {
  name: "ijkl"
  type: "InnerProduct"
  param { lr_mult: 1 decay_mult: 1}
  param { lr_mult: 2 decay_mult: 0}
  inner_product_param {
    num_output: 2
    weight_filler {
      type: "xavier"
    }
    bias_filler {
      type: "constant"
      value: 0
    }
  }
  bottom: "cake"
  top: "ijkl"
}
layer {
  name: "ijkl"
  type: "InnerProduct"
  param { lr_mult: 1 decay_mult: 1}
  param { lr_mult: 2 decay_mult: 0}
  inner_product_param {
    num_output: 2
    weight_filler {
      type: "xavier"
    }
    bias_filler {
      type: "constant"
      value: 0
    }
  }
  bottom: "cake"
  top: "ijkl"
}
layer {
  name: "qrst"
  type: "InnerProduct"
  param { lr_mult: 1 decay_mult: 1}
  param { lr_mult: 2 decay_mult: 0}
  inner_product_param {
    num_output: 3
    weight_filler {
      type: "xavier"
    }
    bias_filler {
      type: "constant"
      value: 0
    }
  }
  bottom: "cake"
  top: "qrst"
}
input: "uvwx"
input_shape: {
  dim: 1
  dim: 1
  dim: 1
  dim: 3
}
input: "uvwx"
input_shape: {
  dim: 1
  dim: 1
  dim: 1
  dim: 3
}
layer {
  name: "abcd"
  type: "InnerProduct"
  param { lr_mult: 1 decay_mult: 1}
  param { lr_mult: 2 decay_mult: 0}
  inner_product_param {
    num_output: 4
    weight_filler {
      type: "xavier"
    }
    bias_filler {
      type: "constant"
      value: 0
    }
  }
  bottom: "cake"
  top: "abcd"
}
layer {
  name: "abcd"
  type: "InnerProduct"
  param { lr_mult: 1 decay_mult: 1}
  param { lr_mult: 2 decay_mult: 0}
  inner_product_param {
    num_output: 4
    weight_filler {
      type: "xavier"
    }
    bias_filler {
      type: "constant"
      value: 0
    }
  }
  bottom: "cake"
  top: "abcd"
}
layer {
  name: "abcd"
  type: "InnerProduct"
  param { lr_mult: 1 decay_mult: 1}
  param { lr_mult: 2 decay_mult: 0}
  inner_product_param {
    num_output: 4
    weight_filler {
      type: "xavier"
    }
    bias_filler {
      type: "constant"
      value: 0
    }
  }
  bottom: "cake"
  top: "abcd"
}
layer {
  name: "ijkl"
  type: "InnerProduct"
  param { lr_mult: 1 decay_mult: 1}
  param { lr_mult: 2 decay_mult: 0}
  inner_product_param {
    num_output: 2
    weight_filler {
      type: "xavier"
    }
    bias_filler {
      type: "constant"
      value: 0
    }
  }
  bottom: "cake"
  top: "ijkl"
}
layer {
  name: "ijkl"
  type: "InnerProduct"
  param { lr_mult: 1 decay_mult: 1}
  param { lr_mult: 2 decay_mult: 0}
  inner_product_param {
    num_output: 2
    weight_filler {
      type: "xavier"
    }
    bias_filler {
      type: "constant"
      value: 0
    }
  }
  bottom: "cake"
  top: "ijkl"
}
layer {
  name: "qrst"
  type: "InnerProduct"
  param { lr_mult: 1 decay_mult: 1}
  param { lr_mult: 2 decay_mult: 0}
  inner_product_param {
    num_output: 3
    weight_filler {
      type: "xavier"
    }
    bias_filler {
      type: "constant"
      value: 0
    }
  }
  bottom: "cake"
  top: "qrst"
}
input: "uvwx"
input_shape: {
  dim: 1
  dim: 1
  dim: 1
  dim: 3
}
input: "uvwx"
input_shape: {
  dim: 1
  dim: 1
  dim: 1
  dim: 3
}
layer {
  name: "abcd"
  type: "InnerProduct"
  param { lr_mult: 1 decay_mult: 1}
  param { lr_mult: 2 decay_mult: 0}
  inner_product_param {
    num_output: 4
    weight_filler {
      type: "xavier"
    }
    bias_filler {
      type: "constant"
      value: 0
    }
  }
  bottom: "cake"
  top: "abcd"
}
layer {
  name: "abcd"
  type: "InnerProduct"
  param { lr_mult: 1 decay_mult: 1}
  param { lr_mult: 2 decay_mult: 0}
  inner_product_param {
    num_output: 4
    weight_filler {
      type: "xavier"
    }
    bias_filler {
      type: "constant"
      value: 0
    }
  }
  bottom: "cake"
  top: "abcd"
}
layer {
  name: "abcd"
  type: "InnerProduct"
  param { lr_mult: 1 decay_mult: 1}
  param { lr_mult: 2 decay_mult: 0}
  inner_product_param {
    num_output: 4
    weight_filler {
      type: "xavier"
    }
    bias_filler {
      type: "constant"
      value: 0
    }
  }
  bottom: "cake"
  top: "abcd"
}
layer {
  name: "ijkl"
  type: "InnerProduct"
  param { lr_mult: 1 decay_mult: 1}
  param { lr_mult: 2 decay_mult: 0}
  inner_product_param {
    num_output: 2
    weight_filler {
      type: "xavier"
    }
    bias_filler {
      type: "constant"
      value: 0
    }
  }
  bottom: "cake"
  top: "ijkl"
}
layer {
  name: "ijkl"
  type: "InnerProduct"
  param { lr_mult: 1 decay_mult: 1}
  param { lr_mult: 2 decay_mult: 0}
  inner_product_param {
    num_output: 2
    weight_filler {
      type: "xavier"
    }
    bias_filler {
      type: "constant"
      value: 0
    }
  }
  bottom: "cake"
  top: "ijkl"
}
layer {
  name: "qrst"
  type: "InnerProduct"
  param { lr_mult: 1 decay_mult: 1}
  param { lr_mult: 2 decay_mult: 0}
  inner_product_param {
    num_output: 3
    weight_filler {
      type: "xavier"
    }
    bias_filler {
      type: "constant"
      value: 0
    }
  }
  bottom: "cake"
  top: "qrst"
}
input: "uvwx"
input_shape: {
  dim: 1
  dim: 1
  dim: 1
  dim: 3
}
input: "uvwx"
input_shape: {
  dim: 1
  dim: 1
  dim: 1
  dim: 3
}
layer {
  name: "abcd"
  type: "InnerProduct"
  param { lr_mult: 1 decay_mult: 1}
  param { lr_mult: 2 decay_mult: 0}
  inner_product_param {
    num_output: 4
    weight_filler {
      type: "xavier"
    }
    bias_filler {
      type: "constant"
      value: 0
    }
  }
  bottom: "cake"
  top: "abcd"
}
layer {
  name: "abcd"
  type: "InnerProduct"
  param { lr_mult: 1 decay_mult: 1}
  param { lr_mult: 2 decay_mult: 0}
  inner_product_param {
    num_output: 4
    weight_filler {
      type: "xavier"
    }
    bias_filler {
      type: "constant"
      value: 0
    }
  }
  bottom: "cake"
  top: "abcd"
}
layer {
  name: "abcd"
  type: "InnerProduct"
  param { lr_mult: 1 decay_mult: 1}
  param { lr_mult: 2 decay_mult: 0}
  inner_product_param {
    num_output: 4
    weight_filler {
      type: "xavier"
    }
    bias_filler {
      type: "constant"
      value: 0
    }
  }
  bottom: "cake"
  top: "abcd"
}
layer {
  name: "ijkl"
  type: "InnerProduct"
  param { lr_mult: 1 decay_mult: 1}
  param { lr_mult: 2 decay_mult: 0}
  inner_product_param {
    num_output: 2
    weight_filler {
      type: "xavier"
    }
    bias_filler {
      type: "constant"
      value: 0
    }
  }
  bottom: "cake"
  top: "ijkl"
}
layer {
  name: "ijkl"
  type: "InnerProduct"
  param { lr_mult: 1 decay_mult: 1}
  param { lr_mult: 2 decay_mult: 0}
  inner_product_param {
    num_output: 2
    weight_filler {
      type: "xavier"
    }
    bias_filler {
      type: "constant"
      value: 0
    }
  }
  bottom: "cake"
  top: "ijkl"
}
layer {
  name: "qrst"
  type: "InnerProduct"
  param { lr_mult: 1 decay_mult: 1}
  param { lr_mult: 2 decay_mult: 0}
  inner_product_param {
    num_output: 3
    weight_filler {
      type: "xavier"
    }
    bias_filler {
      type: "constant"
      value: 0
    }
  }
  bottom: "cake"
  top: "qrst"
}
input: "uvwx"
input_shape: {
  dim: 1
  dim: 1
  dim: 1
  dim: 3
}
input: "uvwx"
input_shape: {
  dim: 1
  dim: 1
  dim: 1
  dim: 3
}
layer {
  name: "abcd"
  type: "InnerProduct"
  param { lr_mult: 1 decay_mult: 1}
  param { lr_mult: 2 decay_mult: 0}
  inner_product_param {
    num_output: 4
    weight_filler {
      type: "xavier"
    }
    bias_filler {
      type: "constant"
      value: 0
    }
  }
  bottom: "cake"
  top: "abcd"
}
layer {
  name: "abcd"
  type: "InnerProduct"
  param { lr_mult: 1 decay_mult: 1}
  param { lr_mult: 2 decay_mult: 0}
  inner_product_param {
    num_output: 4
    weight_filler {
      type: "xavier"
    }
    bias_filler {
      type: "constant"
      value: 0
    }
  }
  bottom: "cake"
  top: "abcd"
}
layer {
  name: "abcd"
  type: "InnerProduct"
  param { lr_mult: 1 decay_mult: 1}
  param { lr_mult: 2 decay_mult: 0}
  inner_product_param {
    num_output: 4
    weight_filler {
      type: "xavier"
    }
    bias_filler {
      type: "constant"
      value: 0
    }
  }
  bottom: "cake"
  top: "abcd"
}
layer {
  name: "ijkl"
  type: "InnerProduct"
  param { lr_mult: 1 decay_mult: 1}
  param { lr_mult: 2 decay_mult: 0}
  inner_product_param {
    num_output: 2
    weight_filler {
      type: "xavier"
    }
    bias_filler {
      type: "constant"
      value: 0
    }
  }
  bottom: "cake"
  top: "ijkl"
}
layer {
  name: "ijkl"
  type: "InnerProduct"
  param { lr_mult: 1 decay_mult: 1}
  param { lr_mult: 2 decay_mult: 0}
  inner_product_param {
    num_output: 2
    weight_filler {
      type: "xavier"
    }
    bias_filler {
      type: "constant"
      value: 0
    }
  }
  bottom: "cake"
  top: "ijkl"
}
layer {
  name: "qrst"
  type: "InnerProduct"
  param { lr_mult: 1 decay_mult: 1}
  param { lr_mult: 2 decay_mult: 0}
  inner_product_param {
    num_output: 3
    weight_filler {
      type: "xavier"
    }
    bias_filler {
      type: "constant"
      value: 0
    }
  }
  bottom: "cake"
  top: "qrst"
}
input: "uvwx"
input_shape: {
  dim: 1
  dim: 1
  dim: 1
  dim: 3
}
input: "uvwx"
input_shape: {
  dim: 1
  dim: 1
  dim: 1
  dim: 3
}
layer {
  name: "abcd"
  type: "InnerProduct"
  param { lr_mult: 1 decay_mult: 1}
  param { lr_mult: 2 decay_mult: 0}
  inner_product_param {
    num_output: 4
    weight_filler {
      type: "xavier"
    }
    bias_filler {
      type: "constant"
      value: 0
    }
  }
  bottom: "cake"
  top: "abcd"
}
layer {
  name: "abcd"
  type: "InnerProduct"
  param { lr_mult: 1 decay_mult: 1}
  param { lr_mult: 2 decay_mult: 0}
  inner_product_param {
    num_output: 4
    weight_filler {
      type: "xavier"
    }
    bias_filler {
      type: "constant"
      value: 0
    }
  }
  bottom: "cake"
  top: "abcd"
}
layer {
  name: "abcd"
  type: "InnerProduct"
  param { lr_mult: 1 decay_mult: 1}
  param { lr_mult: 2 decay_mult: 0}
  inner_product_param {
    num_output: 4
    weight_filler {
      type: "xavier"
    }
    bias_filler {
      type: "constant"
      value: 0
    }
  }
  bottom: "cake"
  top: "abcd"
}
layer {
  name: "ijkl"
  type: "InnerProduct"
  param { lr_mult: 1 decay_mult: 1}
  param { lr_mult: 2 decay_mult: 0}
  inner_product_param {
    num_output: 2
    weight_filler {
      type: "xavier"
    }
    bias_filler {
      type: "constant"
      value: 0
    }
  }
  bottom: "cake"
  top: "ijkl"
}
layer {
  name: "ijkl"
  type: "InnerProduct"
  param { lr_mult: 1 decay_mult: 1}
  param { lr_mult: 2 decay_mult: 0}
  inner_product_param {
    num_output: 2
    weight_filler {
      type: "xavier"
    }
    bias_filler {
      type: "constant"
      value: 0
    }
  }
  bottom: "cake"
  top: "ijkl"
}
layer {
  name: "qrst"
  type: "InnerProduct"
  param { lr_mult: 1 decay_mult: 1}
  param { lr_mult: 2 decay_mult: 0}
  inner_product_param {
    num_output: 3
    weight_filler {
      type: "xavier"
    }
    bias_filler {
      type: "constant"
      value: 0
    }
  }
  bottom: "cake"
  top: "qrst"
}
input: "uvwx"
input_shape: {
  dim: 1
  dim: 1
  dim: 1
  dim: 3
}
input: "uvwx"
input_shape: {
  dim: 1
  dim: 1
  dim: 1
  dim: 3
}
layer {
  name: "abcd"
  type: "InnerProduct"
  param { lr_mult: 1 decay_mult: 1}
  param { lr_mult: 2 decay_mult: 0}
  inner_product_param {
    num_output: 4
    weight_filler {
      type: "xavier"
    }
    bias_filler {
      type: "constant"
      value: 0
    }
  }
  bottom: "cake"
  top: "abcd"
}
layer {
  name: "abcd"
  type: "InnerProduct"
  param { lr_mult: 1 decay_mult: 1}
  param { lr_mult: 2 decay_mult: 0}
  inner_product_param {
    num_output: 4
    weight_filler {
      type: "xavier"
    }
    bias_filler {
      type: "constant"
      value: 0
    }
  }
  bottom: "cake"
  top: "abcd"
}
layer {
  name: "abcd"
  type: "InnerProduct"
  param { lr_mult: 1 decay_mult: 1}
  param { lr_mult: 2 decay_mult: 0}
  inner_product_param {
    num_output: 4
    weight_filler {
      type: "xavier"
    }
    bias_filler {
      type: "constant"
      value: 0
    }
  }
  bottom: "cake"
  top: "abcd"
}
layer {
  name: "ijkl"
  type: "InnerProduct"
  param { lr_mult: 1 decay_mult: 1}
  param { lr_mult: 2 decay_mult: 0}
  inner_product_param {
    num_output: 2
    weight_filler {
      type: "xavier"
    }
    bias_filler {
      type: "constant"
      value: 0
    }
  }
  bottom: "cake"
  top: "ijkl"
}
layer {
  name: "ijkl"
  type: "InnerProduct"
  param { lr_mult: 1 decay_mult: 1}
  param { lr_mult: 2 decay_mult: 0}
  inner_product_param {
    num_output: 2
    weight_filler {
      type: "xavier"
    }
    bias_filler {
      type: "constant"
      value: 0
    }
  }
  bottom: "cake"
  top: "ijkl"
}
layer {
  name: "qrst"
  type: "InnerProduct"
  param { lr_mult: 1 decay_mult: 1}
  param { lr_mult: 2 decay_mult: 0}
  inner_product_param {
    num_output: 3
    weight_filler {
      type: "xavier"
    }
    bias_filler {
      type: "constant"
      value: 0
    }
  }
  bottom: "cake"
  top: "qrst"
}
input: "uvwx"
input_shape: {
  dim: 1
  dim: 1
  dim: 1
  dim: 3
}
input: "uvwx"
input_shape: {
  dim: 1
  dim: 1
  dim: 1
  dim: 3
}
layer {
  name: "abcd"
  type: "InnerProduct"
  param { lr_mult: 1 decay_mult: 1}
  param { lr_mult: 2 decay_mult: 0}
  inner_product_param {
    num_output: 4
    weight_filler {
      type: "xavier"
    }
    bias_filler {
      type: "constant"
      value: 0
    }
  }
  bottom: "cake"
  top: "abcd"
}
layer {
  name: "abcd"
  type: "InnerProduct"
  param { lr_mult: 1 decay_mult: 1}
  param { lr_mult: 2 decay_mult: 0}
  inner_product_param {
    num_output: 4
    weight_filler {
      type: "xavier"
    }
    bias_filler {
      type: "constant"
      value: 0
    }
  }
  bottom: "cake"
  top: "abcd"
}
layer {
  name: "abcd"
  type: "InnerProduct"
  param { lr_mult: 1 decay_mult: 1}
  param { lr_mult: 2 decay_mult: 0}
  inner_product_param {
    num_output: 4
    weight_filler {
      type: "xavier"
    }
    bias_filler {
      type: "constant"
      value: 0
    }
  }
  bottom: "cake"
  top: "abcd"
}
layer {
  name: "ijkl"
  type: "InnerProduct"
  param { lr_mult: 1 decay_mult: 1}
  param { lr_mult: 2 decay_mult: 0}
  inner_product_param {
    num_output: 2
    weight_filler {
      type: "xavier"
    }
    bias_filler {
      type: "constant"
      value: 0
    }
  }
  bottom: "cake"
  top: "ijkl"
}
layer {
  name: "ijkl"
  type: "InnerProduct"
  param { lr_mult: 1 decay_mult: 1}
  param { lr_mult: 2 decay_mult: 0}
  inner_product_param {
    num_output: 2
    weight_filler {
      type: "xavier"
    }
    bias_filler {
      type: "constant"
      value: 0
    }
  }
  bottom: "cake"
  top: "ijkl"
}
layer {
  name: "qrst"
  type: "InnerProduct"
  param { lr_mult: 1 decay_mult: 1}
  param { lr_mult: 2 decay_mult: 0}
  inner_product_param {
    num_output: 3
    weight_filler {
      type: "xavier"
    }
    bias_filler {
      type: "constant"
      value: 0
    }
  }
  bottom: "cake"
  top: "qrst"
}
input: "uvwx"
input_shape: {
  dim: 1
  dim: 1
  dim: 1
  dim: 3
}
input: "uvwx"
input_shape: {
  dim: 1
  dim: 1
  dim: 1
  dim: 3
}
layer {
  name: "abcd"
  type: "InnerProduct"
  param { lr_mult: 1 decay_mult: 1}
  param { lr_mult: 2 decay_mult: 0}
  inner_product_param {
    num_output: 4
    weight_filler {
      type: "xavier"
    }
    bias_filler {
      type: "constant"
      value: 0
    }
  }
  bottom: "cake"
  top: "abcd"
}
layer {
  name: "abcd"
  type: "InnerProduct"
  param { lr_mult: 1 decay_mult: 1}
  param { lr_mult: 2 decay_mult: 0}
  inner_product_param {
    num_output: 4
    weight_filler {
      type: "xavier"
    }
    bias_filler {
      type: "constant"
      value: 0
    }
  }
  bottom: "cake"
  top: "abcd"
}
layer {
  name: "abcd"
  type: "InnerProduct"
  param { lr_mult: 1 decay_mult: 1}
  param { lr_mult: 2 decay_mult: 0}
  inner_product_param {
    num_output: 4
    weight_filler {
      type: "xavier"
    }
    bias_filler {
      type: "constant"
      value: 0
    }
  }
  bottom: "cake"
  top: "abcd"
}
layer {
  name: "ijkl"
  type: "InnerProduct"
  param { lr_mult: 1 decay_mult: 1}
  param { lr_mult: 2 decay_mult: 0}
  inner_product_param {
    num_output: 2
    weight_filler {
      type: "xavier"
    }
    bias_filler {
      type: "constant"
      value: 0
    }
  }
  bottom: "cake"
  top: "ijkl"
}
layer {
  name: "ijkl"
  type: "InnerProduct"
  param { lr_mult: 1 decay_mult: 1}
  param { lr_mult: 2 decay_mult: 0}
  inner_product_param {
    num_output: 2
    weight_filler {
      type: "xavier"
    }
    bias_filler {
      type: "constant"
      value: 0
    }
  }
  bottom: "cake"
  top: "ijkl"
}
layer {
  name: "qrst"
  type: "InnerProduct"
  param { lr_mult: 1 decay_mult: 1}
  param { lr_mult: 2 decay_mult: 0}
  inner_product_param {
    num_output: 3
    weight_filler {
      type: "xavier"
    }
    bias_filler {
      type: "constant"
      value: 0
    }
  }
  bottom: "cake"
  top: "qrst"
}
input: "uvwx"
input_shape: {
  dim: 1
  dim: 1
  dim: 1
  dim: 3
}
input: "uvwx"
input_shape: {
  dim: 1
  dim: 1
  dim: 1
  dim: 3
}
layer {
  name: "abcd"
  type: "InnerProduct"
  param { lr_mult: 1 decay_mult: 1}
  param { lr_mult: 2 decay_mult: 0}
  inner_product_param {
    num_output: 4
    weight_filler {
      type: "xavier"
    }
    bias_filler {
      type: "constant"
      value: 0
    }
  }
  bottom: "cake"
  top: "abcd"
}
layer {
  name: "abcd"
  type: "InnerProduct"
  param { lr_mult: 1 decay_mult: 1}
  param { lr_mult: 2 decay_mult: 0}
  inner_product_param {
    num_output: 4
    weight_filler {
      type: "xavier"
    }
    bias_filler {
      type: "constant"
      value: 0
    }
  }
  bottom: "cake"
  top: "abcd"
}
layer {
  name: "abcd"
  type: "InnerProduct"
  param { lr_mult: 1 decay_mult: 1}
  param { lr_mult: 2 decay_mult: 0}
  inner_product_param {
    num_output: 4
    weight_filler {
      type: "xavier"
    }
    bias_filler {
      type: "constant"
      value: 0
    }
  }
  bottom: "cake"
  top: "abcd"
}
layer {
  name: "ijkl"
  type: "InnerProduct"
  param { lr_mult: 1 decay_mult: 1}
  param { lr_mult: 2 decay_mult: 0}
  inner_product_param {
    num_output: 2
    weight_filler {
      type: "xavier"
    }
    bias_filler {
      type: "constant"
      value: 0
    }
  }
  bottom: "cake"
  top: "ijkl"
}
layer {
  name: "ijkl"
  type: "InnerProduct"
  param { lr_mult: 1 decay_mult: 1}
  param { lr_mult: 2 decay_mult: 0}
  inner_product_param {
    num_output: 2
    weight_filler {
      type: "xavier"
    }
    bias_filler {
      type: "constant"
      value: 0
    }
  }
  bottom: "cake"
  top: "ijkl"
}
layer {
  name: "qrst"
  type: "InnerProduct"
  param { lr_mult: 1 decay_mult: 1}
  param { lr_mult: 2 decay_mult: 0}
  inner_product_param {
    num_output: 3
    weight_filler {
      type: "xavier"
    }
    bias_filler {
      type: "constant"
      value: 0
    }
  }
  bottom: "cake"
  top: "qrst"
}
input: "uvwx"
input_shape: {
  dim: 1
  dim: 1
  dim: 1
  dim: 3
}
input: "uvwx"
input_shape: {
  dim: 1
  dim: 1
  dim: 1
  dim: 3
}
layer {
  name: "abcd"
  type: "InnerProduct"
  param { lr_mult: 1 decay_mult: 1}
  param { lr_mult: 2 decay_mult: 0}
  inner_product_param {
    num_output: 4
    weight_filler {
      type: "xavier"
    }
    bias_filler {
      type: "constant"
      value: 0
    }
  }
  bottom: "cake"
  top: "abcd"
}
layer {
  name: "abcd"
  type: "InnerProduct"
  param { lr_mult: 1 decay_mult: 1}
  param { lr_mult: 2 decay_mult: 0}
  inner_product_param {
    num_output: 4
    weight_filler {
      type: "xavier"
    }
    bias_filler {
      type: "constant"
      value: 0
    }
  }
  bottom: "cake"
  top: "abcd"
}
layer {
  name: "abcd"
  type: "InnerProduct"
  param { lr_mult: 1 decay_mult: 1}
  param { lr_mult: 2 decay_mult: 0}
  inner_product_param {
    num_output: 4
    weight_filler {
      type: "xavier"
    }
    bias_filler {
      type: "constant"
      value: 0
    }
  }
  bottom: "cake"
  top: "abcd"
}
layer {
  name: "ijkl"
  type: "InnerProduct"
  param { lr_mult: 1 decay_mult: 1}
  param { lr_mult: 2 decay_mult: 0}
  inner_product_param {
    num_output: 2
    weight_filler {
      type: "xavier"
    }
    bias_filler {
      type: "constant"
      value: 0
    }
  }
  bottom: "cake"
  top: "ijkl"
}
layer {
  name: "ijkl"
  type: "InnerProduct"
  param { lr_mult: 1 decay_mult: 1}
  param { lr_mult: 2 decay_mult: 0}
  inner_product_param {
    num_output: 2
    weight_filler {
      type: "xavier"
    }
    bias_filler {
      type: "constant"
      value: 0
    }
  }
  bottom: "cake"
  top: "ijkl"
}
layer {
  name: "qrst"
  type: "InnerProduct"
  param { lr_mult: 1 decay_mult: 1}
  param { lr_mult: 2 decay_mult: 0}
  inner_product_param {
    num_output: 3
    weight_filler {
      type: "xavier"
    }
    bias_filler {
      type: "constant"
      value: 0
    }
  }
  bottom: "cake"
  top: "qrst"
}
input: "uvwx"
input_shape: {
  dim: 1
  dim: 1
  dim: 1
  dim: 3
}
input: "uvwx"
input_shape: {
  dim: 1
  dim: 1
  dim: 1
  dim: 3
}
layer {
  name: "abcd"
  type: "InnerProduct"
  param { lr_mult: 1 decay_mult: 1}
  param { lr_mult: 2 decay_mult: 0}
  inner_product_param {
    num_output: 4
    weight_filler {
      type: "xavier"
    }
    bias_filler {
      type: "constant"
      value: 0
    }
  }
  bottom: "cake"
  top: "abcd"
}
layer {
  name: "abcd"
  type: "InnerProduct"
  param { lr_mult: 1 decay_mult: 1}
  param { lr_mult: 2 decay_mult: 0}
  inner_product_param {
    num_output: 4
    weight_filler {
      type: "xavier"
    }
    bias_filler {
      type: "constant"
      value: 0
    }
  }
  bottom: "cake"
  top: "abcd"
}
layer {
  name: "abcd"
  type: "InnerProduct"
  param { lr_mult: 1 decay_mult: 1}
  param { lr_mult: 2 decay_mult: 0}
  inner_product_param {
    num_output: 4
    weight_filler {
      type: "xavier"
    }
    bias_filler {
      type: "constant"
      value: 0
    }
  }
  bottom: "cake"
  top: "abcd"
}
layer {
  name: "ijkl"
  type: "InnerProduct"
  param { lr_mult: 1 decay_mult: 1}
  param { lr_mult: 2 decay_mult: 0}
  inner_product_param {
    num_output: 2
    weight_filler {
      type: "xavier"
    }
    bias_filler {
      type: "constant"
      value: 0
    }
  }
  bottom: "cake"
  top: "ijkl"
}
layer {
  name: "ijkl"
  type: "InnerProduct"
  param { lr_mult: 1 decay_mult: 1}
  param { lr_mult: 2 decay_mult: 0}
  inner_product_param {
    num_output: 2
    weight_filler {
      type: "xavier"
    }
    bias_filler {
      type: "constant"
      value: 0
    }
  }
  bottom: "cake"
  top: "ijkl"
}
layer {
  name: "qrst"
  type: "InnerProduct"
  param { lr_mult: 1 decay_mult: 1}
  param { lr_mult: 2 decay_mult: 0}
  inner_product_param {
    num_output: 3
    weight_filler {
      type: "xavier"
    }
    bias_filler {
      type: "constant"
      value: 0
    }
  }
  bottom: "cake"
  top: "qrst"
}
input: "uvwx"
input_shape: {
  dim: 1
  dim: 1
  dim: 1
  dim: 3
}
input: "uvwx"
input_shape: {
  dim: 1
  dim: 1
  dim: 1
  dim: 3
}
